{"format": "graph-model", "generatedBy": "2.18.0", "convertedBy": "TensorFlow.js Converter v4.22.0", "signature": {"inputs": {"input_img": {"name": "input_img:0", "dtype": "DT_FLOAT", "tensorShape": {"dim": [{"size": "-1"}, {"size": "256"}, {"size": "256"}, {"size": "3"}]}}}, "outputs": {"output_0": {"name": "Identity:0", "dtype": "DT_FLOAT", "tensorShape": {"dim": [{"size": "-1"}, {"size": "256"}, {"size": "256"}, {"size": "3"}]}}}}, "modelTopology": {"node": [{"name": "StatefulPartitionedCall/generator_G_1/conv2d_transpose_7_1/strided_slice/stack", "op": "Const", "attr": {"value": {"tensor": {"dtype": "DT_INT32", "tensorShape": {"dim": [{"size": "1"}]}}}, "dtype": {"type": "DT_INT32"}}}, {"name": "StatefulPartitionedCall/generator_G_1/conv2d_transpose_7_1/strided_slice/stack_1", "op": "Const", "attr": {"value": {"tensor": {"dtype": "DT_INT32", "tensorShape": {"dim": [{"size": "1"}]}}}, "dtype": {"type": "DT_INT32"}}}, {"name": "StatefulPartitionedCall/generator_G_1/conv2d_transpose_7_1/strided_slice/stack_2", "op": "Const", "attr": {"value": {"tensor": {"dtype": "DT_INT32", "tensorShape": {"dim": [{"size": "1"}]}}}, "dtype": {"type": "DT_INT32"}}}, {"name": "StatefulPartitionedCall/generator_G_1/conv2d_transpose_7_1/conv_transpose/input_sizes/1", "op": "Const", "attr": {"value": {"tensor": {"dtype": "DT_INT32", "tensorShape": {}}}, "dtype": {"type": "DT_INT32"}}}, {"name": "StatefulPartitionedCall/generator_G_1/conv2d_transpose_7_1/conv_transpose/input_sizes/2", "op": "Const", "attr": {"value": {"tensor": {"dtype": "DT_INT32", "tensorShape": {}}}, "dtype": {"type": "DT_INT32"}}}, {"name": "StatefulPartitionedCall/generator_G_1/conv2d_transpose_7_1/conv_transpose/input_sizes/3", "op": "Const", "attr": {"value": {"tensor": {"dtype": "DT_INT32", "tensorShape": {}}}, "dtype": {"type": "DT_INT32"}}}, {"name": "StatefulPartitionedCall/generator_G_1/conv2d_transpose_7_1/conv_transpose/ReadVariableOp", "op": "Const", "attr": {"value": {"tensor": {"dtype": "DT_FLOAT", "tensorShape": {"dim": [{"size": "4"}, {"size": "4"}, {"size": "3"}, {"size": "128"}]}}}, "dtype": {"type": "DT_FLOAT"}}}, {"name": "StatefulPartitionedCall/generator_G_1/upsample_block_6_1/conv2d_transpose_6_1/strided_slice/stack", "op": "Const", "attr": {"value": {"tensor": {"dtype": "DT_INT32", "tensorShape": {"dim": [{"size": "1"}]}}}, "dtype": {"type": "DT_INT32"}}}, {"name": "StatefulPartitionedCall/generator_G_1/upsample_block_6_1/conv2d_transpose_6_1/strided_slice/stack_1", "op": "Const", "attr": {"value": {"tensor": {"dtype": "DT_INT32", "tensorShape": {"dim": [{"size": "1"}]}}}, "dtype": {"type": "DT_INT32"}}}, {"name": "StatefulPartitionedCall/generator_G_1/upsample_block_6_1/conv2d_transpose_6_1/strided_slice/stack_2", "op": "Const", "attr": {"value": {"tensor": {"dtype": "DT_INT32", "tensorShape": {"dim": [{"size": "1"}]}}}, "dtype": {"type": "DT_INT32"}}}, {"name": "StatefulPartitionedCall/generator_G_1/upsample_block_6_1/conv2d_transpose_6_1/conv_transpose/input_sizes/1", "op": "Const", "attr": {"value": {"tensor": {"dtype": "DT_INT32", "tensorShape": {}}}, "dtype": {"type": "DT_INT32"}}}, {"name": "StatefulPartitionedCall/generator_G_1/upsample_block_6_1/conv2d_transpose_6_1/conv_transpose/input_sizes/2", "op": "Const", "attr": {"value": {"tensor": {"dtype": "DT_INT32", "tensorShape": {}}}, "dtype": {"type": "DT_INT32"}}}, {"name": "StatefulPartitionedCall/generator_G_1/upsample_block_6_1/conv2d_transpose_6_1/conv_transpose/input_sizes/3", "op": "Const", "attr": {"value": {"tensor": {"dtype": "DT_INT32", "tensorShape": {}}}, "dtype": {"type": "DT_INT32"}}}, {"name": "StatefulPartitionedCall/generator_G_1/upsample_block_6_1/conv2d_transpose_6_1/conv_transpose/ReadVariableOp", "op": "Const", "attr": {"value": {"tensor": {"dtype": "DT_FLOAT", "tensorShape": {"dim": [{"size": "4"}, {"size": "4"}, {"size": "64"}, {"size": "256"}]}}}, "dtype": {"type": "DT_FLOAT"}}}, {"name": "StatefulPartitionedCall/generator_G_1/upsample_block_5_1/conv2d_transpose_5_1/strided_slice/stack", "op": "Const", "attr": {"value": {"tensor": {"dtype": "DT_INT32", "tensorShape": {"dim": [{"size": "1"}]}}}, "dtype": {"type": "DT_INT32"}}}, {"name": "StatefulPartitionedCall/generator_G_1/upsample_block_5_1/conv2d_transpose_5_1/strided_slice/stack_1", "op": "Const", "attr": {"value": {"tensor": {"dtype": "DT_INT32", "tensorShape": {"dim": [{"size": "1"}]}}}, "dtype": {"type": "DT_INT32"}}}, {"name": "StatefulPartitionedCall/generator_G_1/upsample_block_5_1/conv2d_transpose_5_1/strided_slice/stack_2", "op": "Const", "attr": {"value": {"tensor": {"dtype": "DT_INT32", "tensorShape": {"dim": [{"size": "1"}]}}}, "dtype": {"type": "DT_INT32"}}}, {"name": "StatefulPartitionedCall/generator_G_1/upsample_block_5_1/conv2d_transpose_5_1/conv_transpose/input_sizes/1", "op": "Const", "attr": {"value": {"tensor": {"dtype": "DT_INT32", "tensorShape": {}}}, "dtype": {"type": "DT_INT32"}}}, {"name": "StatefulPartitionedCall/generator_G_1/upsample_block_5_1/conv2d_transpose_5_1/conv_transpose/input_sizes/2", "op": "Const", "attr": {"value": {"tensor": {"dtype": "DT_INT32", "tensorShape": {}}}, "dtype": {"type": "DT_INT32"}}}, {"name": "StatefulPartitionedCall/generator_G_1/upsample_block_5_1/conv2d_transpose_5_1/conv_transpose/input_sizes/3", "op": "Const", "attr": {"value": {"tensor": {"dtype": "DT_INT32", "tensorShape": {}}}, "dtype": {"type": "DT_INT32"}}}, {"name": "StatefulPartitionedCall/generator_G_1/upsample_block_5_1/conv2d_transpose_5_1/conv_transpose/ReadVariableOp", "op": "Const", "attr": {"value": {"tensor": {"dtype": "DT_FLOAT", "tensorShape": {"dim": [{"size": "4"}, {"size": "4"}, {"size": "128"}, {"size": "512"}]}}}, "dtype": {"type": "DT_FLOAT"}}}, {"name": "StatefulPartitionedCall/generator_G_1/upsample_block_4_1/conv2d_transpose_4_1/strided_slice/stack", "op": "Const", "attr": {"value": {"tensor": {"dtype": "DT_INT32", "tensorShape": {"dim": [{"size": "1"}]}}}, "dtype": {"type": "DT_INT32"}}}, {"name": "StatefulPartitionedCall/generator_G_1/upsample_block_4_1/conv2d_transpose_4_1/strided_slice/stack_1", "op": "Const", "attr": {"value": {"tensor": {"dtype": "DT_INT32", "tensorShape": {"dim": [{"size": "1"}]}}}, "dtype": {"type": "DT_INT32"}}}, {"name": "StatefulPartitionedCall/generator_G_1/upsample_block_4_1/conv2d_transpose_4_1/strided_slice/stack_2", "op": "Const", "attr": {"value": {"tensor": {"dtype": "DT_INT32", "tensorShape": {"dim": [{"size": "1"}]}}}, "dtype": {"type": "DT_INT32"}}}, {"name": "StatefulPartitionedCall/generator_G_1/upsample_block_4_1/conv2d_transpose_4_1/conv_transpose/input_sizes/1", "op": "Const", "attr": {"value": {"tensor": {"dtype": "DT_INT32", "tensorShape": {}}}, "dtype": {"type": "DT_INT32"}}}, {"name": "StatefulPartitionedCall/generator_G_1/upsample_block_4_1/conv2d_transpose_4_1/conv_transpose/input_sizes/2", "op": "Const", "attr": {"value": {"tensor": {"dtype": "DT_INT32", "tensorShape": {}}}, "dtype": {"type": "DT_INT32"}}}, {"name": "StatefulPartitionedCall/generator_G_1/upsample_block_4_1/conv2d_transpose_4_1/conv_transpose/input_sizes/3", "op": "Const", "attr": {"value": {"tensor": {"dtype": "DT_INT32", "tensorShape": {}}}, "dtype": {"type": "DT_INT32"}}}, {"name": "StatefulPartitionedCall/generator_G_1/upsample_block_4_1/conv2d_transpose_4_1/conv_transpose/ReadVariableOp", "op": "Const", "attr": {"value": {"tensor": {"dtype": "DT_FLOAT", "tensorShape": {"dim": [{"size": "4"}, {"size": "4"}, {"size": "256"}, {"size": "1024"}]}}}, "dtype": {"type": "DT_FLOAT"}}}, {"name": "StatefulPartitionedCall/generator_G_1/upsample_block_3_1/conv2d_transpose_3_1/strided_slice/stack", "op": "Const", "attr": {"value": {"tensor": {"dtype": "DT_INT32", "tensorShape": {"dim": [{"size": "1"}]}}}, "dtype": {"type": "DT_INT32"}}}, {"name": "StatefulPartitionedCall/generator_G_1/upsample_block_3_1/conv2d_transpose_3_1/strided_slice/stack_1", "op": "Const", "attr": {"value": {"tensor": {"dtype": "DT_INT32", "tensorShape": {"dim": [{"size": "1"}]}}}, "dtype": {"type": "DT_INT32"}}}, {"name": "StatefulPartitionedCall/generator_G_1/upsample_block_3_1/conv2d_transpose_3_1/strided_slice/stack_2", "op": "Const", "attr": {"value": {"tensor": {"dtype": "DT_INT32", "tensorShape": {"dim": [{"size": "1"}]}}}, "dtype": {"type": "DT_INT32"}}}, {"name": "StatefulPartitionedCall/generator_G_1/upsample_block_3_1/conv2d_transpose_3_1/conv_transpose/input_sizes/1", "op": "Const", "attr": {"value": {"tensor": {"dtype": "DT_INT32", "tensorShape": {}}}, "dtype": {"type": "DT_INT32"}}}, {"name": "StatefulPartitionedCall/generator_G_1/upsample_block_3_1/conv2d_transpose_3_1/conv_transpose/input_sizes/2", "op": "Const", "attr": {"value": {"tensor": {"dtype": "DT_INT32", "tensorShape": {}}}, "dtype": {"type": "DT_INT32"}}}, {"name": "StatefulPartitionedCall/generator_G_1/upsample_block_3_1/conv2d_transpose_3_1/conv_transpose/input_sizes/3", "op": "Const", "attr": {"value": {"tensor": {"dtype": "DT_INT32", "tensorShape": {}}}, "dtype": {"type": "DT_INT32"}}}, {"name": "StatefulPartitionedCall/generator_G_1/upsample_block_3_1/conv2d_transpose_3_1/conv_transpose/ReadVariableOp", "op": "Const", "attr": {"value": {"tensor": {"dtype": "DT_FLOAT", "tensorShape": {"dim": [{"size": "4"}, {"size": "4"}, {"size": "512"}, {"size": "1024"}]}}}, "dtype": {"type": "DT_FLOAT"}}}, {"name": "StatefulPartitionedCall/generator_G_1/upsample_block_2_1/conv2d_transpose_2_1/strided_slice/stack", "op": "Const", "attr": {"value": {"tensor": {"dtype": "DT_INT32", "tensorShape": {"dim": [{"size": "1"}]}}}, "dtype": {"type": "DT_INT32"}}}, {"name": "StatefulPartitionedCall/generator_G_1/upsample_block_2_1/conv2d_transpose_2_1/strided_slice/stack_1", "op": "Const", "attr": {"value": {"tensor": {"dtype": "DT_INT32", "tensorShape": {"dim": [{"size": "1"}]}}}, "dtype": {"type": "DT_INT32"}}}, {"name": "StatefulPartitionedCall/generator_G_1/upsample_block_2_1/conv2d_transpose_2_1/strided_slice/stack_2", "op": "Const", "attr": {"value": {"tensor": {"dtype": "DT_INT32", "tensorShape": {"dim": [{"size": "1"}]}}}, "dtype": {"type": "DT_INT32"}}}, {"name": "StatefulPartitionedCall/generator_G_1/upsample_block_2_1/conv2d_transpose_2_1/conv_transpose/input_sizes/1", "op": "Const", "attr": {"value": {"tensor": {"dtype": "DT_INT32", "tensorShape": {}}}, "dtype": {"type": "DT_INT32"}}}, {"name": "StatefulPartitionedCall/generator_G_1/upsample_block_2_1/conv2d_transpose_2_1/conv_transpose/input_sizes/2", "op": "Const", "attr": {"value": {"tensor": {"dtype": "DT_INT32", "tensorShape": {}}}, "dtype": {"type": "DT_INT32"}}}, {"name": "StatefulPartitionedCall/generator_G_1/upsample_block_2_1/conv2d_transpose_2_1/conv_transpose/input_sizes/3", "op": "Const", "attr": {"value": {"tensor": {"dtype": "DT_INT32", "tensorShape": {}}}, "dtype": {"type": "DT_INT32"}}}, {"name": "StatefulPartitionedCall/generator_G_1/upsample_block_2_1/conv2d_transpose_2_1/conv_transpose/ReadVariableOp", "op": "Const", "attr": {"value": {"tensor": {"dtype": "DT_FLOAT", "tensorShape": {"dim": [{"size": "4"}, {"size": "4"}, {"size": "512"}, {"size": "1024"}]}}}, "dtype": {"type": "DT_FLOAT"}}}, {"name": "StatefulPartitionedCall/generator_G_1/upsample_block_1_2/conv2d_transpose_1_1/strided_slice/stack", "op": "Const", "attr": {"value": {"tensor": {"dtype": "DT_INT32", "tensorShape": {"dim": [{"size": "1"}]}}}, "dtype": {"type": "DT_INT32"}}}, {"name": "StatefulPartitionedCall/generator_G_1/upsample_block_1_2/conv2d_transpose_1_1/strided_slice/stack_1", "op": "Const", "attr": {"value": {"tensor": {"dtype": "DT_INT32", "tensorShape": {"dim": [{"size": "1"}]}}}, "dtype": {"type": "DT_INT32"}}}, {"name": "StatefulPartitionedCall/generator_G_1/upsample_block_1_2/conv2d_transpose_1_1/strided_slice/stack_2", "op": "Const", "attr": {"value": {"tensor": {"dtype": "DT_INT32", "tensorShape": {"dim": [{"size": "1"}]}}}, "dtype": {"type": "DT_INT32"}}}, {"name": "StatefulPartitionedCall/generator_G_1/upsample_block_1_2/conv2d_transpose_1_1/conv_transpose/input_sizes/1", "op": "Const", "attr": {"value": {"tensor": {"dtype": "DT_INT32", "tensorShape": {}}}, "dtype": {"type": "DT_INT32"}}}, {"name": "StatefulPartitionedCall/generator_G_1/upsample_block_1_2/conv2d_transpose_1_1/conv_transpose/input_sizes/2", "op": "Const", "attr": {"value": {"tensor": {"dtype": "DT_INT32", "tensorShape": {}}}, "dtype": {"type": "DT_INT32"}}}, {"name": "StatefulPartitionedCall/generator_G_1/upsample_block_1_2/conv2d_transpose_1_1/conv_transpose/input_sizes/3", "op": "Const", "attr": {"value": {"tensor": {"dtype": "DT_INT32", "tensorShape": {}}}, "dtype": {"type": "DT_INT32"}}}, {"name": "StatefulPartitionedCall/generator_G_1/upsample_block_1_2/conv2d_transpose_1_1/conv_transpose/ReadVariableOp", "op": "Const", "attr": {"value": {"tensor": {"dtype": "DT_FLOAT", "tensorShape": {"dim": [{"size": "4"}, {"size": "4"}, {"size": "512"}, {"size": "1024"}]}}}, "dtype": {"type": "DT_FLOAT"}}}, {"name": "StatefulPartitionedCall/generator_G_1/upsample_block_1/conv2d_transpose_1/strided_slice/stack", "op": "Const", "attr": {"value": {"tensor": {"dtype": "DT_INT32", "tensorShape": {"dim": [{"size": "1"}]}}}, "dtype": {"type": "DT_INT32"}}}, {"name": "StatefulPartitionedCall/generator_G_1/upsample_block_1/conv2d_transpose_1/strided_slice/stack_1", "op": "Const", "attr": {"value": {"tensor": {"dtype": "DT_INT32", "tensorShape": {"dim": [{"size": "1"}]}}}, "dtype": {"type": "DT_INT32"}}}, {"name": "StatefulPartitionedCall/generator_G_1/upsample_block_1/conv2d_transpose_1/strided_slice/stack_2", "op": "Const", "attr": {"value": {"tensor": {"dtype": "DT_INT32", "tensorShape": {"dim": [{"size": "1"}]}}}, "dtype": {"type": "DT_INT32"}}}, {"name": "StatefulPartitionedCall/generator_G_1/upsample_block_1/conv2d_transpose_1/conv_transpose/input_sizes/1", "op": "Const", "attr": {"value": {"tensor": {"dtype": "DT_INT32", "tensorShape": {}}}, "dtype": {"type": "DT_INT32"}}}, {"name": "StatefulPartitionedCall/generator_G_1/upsample_block_1/conv2d_transpose_1/conv_transpose/input_sizes/2", "op": "Const", "attr": {"value": {"tensor": {"dtype": "DT_INT32", "tensorShape": {}}}, "dtype": {"type": "DT_INT32"}}}, {"name": "StatefulPartitionedCall/generator_G_1/upsample_block_1/conv2d_transpose_1/conv_transpose/input_sizes/3", "op": "Const", "attr": {"value": {"tensor": {"dtype": "DT_INT32", "tensorShape": {}}}, "dtype": {"type": "DT_INT32"}}}, {"name": "StatefulPartitionedCall/generator_G_1/upsample_block_1/conv2d_transpose_1/conv_transpose/ReadVariableOp", "op": "Const", "attr": {"value": {"tensor": {"dtype": "DT_FLOAT", "tensorShape": {"dim": [{"size": "4"}, {"size": "4"}, {"size": "512"}, {"size": "512"}]}}}, "dtype": {"type": "DT_FLOAT"}}}, {"name": "StatefulPartitionedCall/generator_G_1/downsample_block_7_1/conv2d_7_1/convolution/merged_input", "op": "Const", "attr": {"value": {"tensor": {"dtype": "DT_FLOAT", "tensorShape": {"dim": [{"size": "4"}, {"size": "4"}, {"size": "512"}, {"size": "512"}]}}}, "dtype": {"type": "DT_FLOAT"}}}, {"name": "StatefulPartitionedCall/generator_G_1/downsample_block_7_1/batch_normalization_7_1/batchnorm/sub", "op": "Const", "attr": {"value": {"tensor": {"dtype": "DT_FLOAT", "tensorShape": {"dim": [{"size": "512"}]}}}, "dtype": {"type": "DT_FLOAT"}}}, {"name": "StatefulPartitionedCall/generator_G_1/upsample_block_1/batch_normalization_8_1/batchnorm/mul", "op": "Const", "attr": {"value": {"tensor": {"dtype": "DT_FLOAT", "tensorShape": {"dim": [{"size": "512"}]}}}, "dtype": {"type": "DT_FLOAT"}}}, {"name": "StatefulPartitionedCall/generator_G_1/downsample_block_6_1/conv2d_6_1/convolution/merged_input", "op": "Const", "attr": {"value": {"tensor": {"dtype": "DT_FLOAT", "tensorShape": {"dim": [{"size": "4"}, {"size": "4"}, {"size": "512"}, {"size": "512"}]}}}, "dtype": {"type": "DT_FLOAT"}}}, {"name": "StatefulPartitionedCall/generator_G_1/downsample_block_6_1/batch_normalization_6_1/batchnorm/sub", "op": "Const", "attr": {"value": {"tensor": {"dtype": "DT_FLOAT", "tensorShape": {"dim": [{"size": "512"}]}}}, "dtype": {"type": "DT_FLOAT"}}}, {"name": "StatefulPartitionedCall/generator_G_1/concatenate_1479_1/concat/axis", "op": "Const", "attr": {"value": {"tensor": {"dtype": "DT_INT32", "tensorShape": {}}}, "dtype": {"type": "DT_INT32"}}}, {"name": "StatefulPartitionedCall/generator_G_1/upsample_block_1_2/batch_normalization_9_1/batchnorm/mul", "op": "Const", "attr": {"value": {"tensor": {"dtype": "DT_FLOAT", "tensorShape": {"dim": [{"size": "512"}]}}}, "dtype": {"type": "DT_FLOAT"}}}, {"name": "StatefulPartitionedCall/generator_G_1/upsample_block_1_2/batch_normalization_9_1/batchnorm/sub", "op": "Const", "attr": {"value": {"tensor": {"dtype": "DT_FLOAT", "tensorShape": {"dim": [{"size": "512"}]}}}, "dtype": {"type": "DT_FLOAT"}}}, {"name": "StatefulPartitionedCall/generator_G_1/downsample_block_5_1/conv2d_5_1/convolution/merged_input", "op": "Const", "attr": {"value": {"tensor": {"dtype": "DT_FLOAT", "tensorShape": {"dim": [{"size": "4"}, {"size": "4"}, {"size": "512"}, {"size": "512"}]}}}, "dtype": {"type": "DT_FLOAT"}}}, {"name": "StatefulPartitionedCall/generator_G_1/downsample_block_5_1/batch_normalization_5_1/batchnorm/sub", "op": "Const", "attr": {"value": {"tensor": {"dtype": "DT_FLOAT", "tensorShape": {"dim": [{"size": "512"}]}}}, "dtype": {"type": "DT_FLOAT"}}}, {"name": "StatefulPartitionedCall/generator_G_1/concatenate_1480_1/concat/axis", "op": "Const", "attr": {"value": {"tensor": {"dtype": "DT_INT32", "tensorShape": {}}}, "dtype": {"type": "DT_INT32"}}}, {"name": "StatefulPartitionedCall/generator_G_1/upsample_block_2_1/batch_normalization_10_1/batchnorm/mul", "op": "Const", "attr": {"value": {"tensor": {"dtype": "DT_FLOAT", "tensorShape": {"dim": [{"size": "512"}]}}}, "dtype": {"type": "DT_FLOAT"}}}, {"name": "StatefulPartitionedCall/generator_G_1/upsample_block_2_1/batch_normalization_10_1/batchnorm/sub", "op": "Const", "attr": {"value": {"tensor": {"dtype": "DT_FLOAT", "tensorShape": {"dim": [{"size": "512"}]}}}, "dtype": {"type": "DT_FLOAT"}}}, {"name": "StatefulPartitionedCall/generator_G_1/downsample_block_4_1/conv2d_4_1/convolution/merged_input", "op": "Const", "attr": {"value": {"tensor": {"dtype": "DT_FLOAT", "tensorShape": {"dim": [{"size": "4"}, {"size": "4"}, {"size": "512"}, {"size": "512"}]}}}, "dtype": {"type": "DT_FLOAT"}}}, {"name": "StatefulPartitionedCall/generator_G_1/downsample_block_4_1/batch_normalization_4_1/batchnorm/sub", "op": "Const", "attr": {"value": {"tensor": {"dtype": "DT_FLOAT", "tensorShape": {"dim": [{"size": "512"}]}}}, "dtype": {"type": "DT_FLOAT"}}}, {"name": "StatefulPartitionedCall/generator_G_1/concatenate_1481_1/concat/axis", "op": "Const", "attr": {"value": {"tensor": {"dtype": "DT_INT32", "tensorShape": {}}}, "dtype": {"type": "DT_INT32"}}}, {"name": "StatefulPartitionedCall/generator_G_1/upsample_block_3_1/batch_normalization_11_1/batchnorm/mul", "op": "Const", "attr": {"value": {"tensor": {"dtype": "DT_FLOAT", "tensorShape": {"dim": [{"size": "512"}]}}}, "dtype": {"type": "DT_FLOAT"}}}, {"name": "StatefulPartitionedCall/generator_G_1/upsample_block_3_1/batch_normalization_11_1/batchnorm/sub", "op": "Const", "attr": {"value": {"tensor": {"dtype": "DT_FLOAT", "tensorShape": {"dim": [{"size": "512"}]}}}, "dtype": {"type": "DT_FLOAT"}}}, {"name": "StatefulPartitionedCall/generator_G_1/downsample_block_3_1/conv2d_3_1/convolution/merged_input", "op": "Const", "attr": {"value": {"tensor": {"dtype": "DT_FLOAT", "tensorShape": {"dim": [{"size": "4"}, {"size": "4"}, {"size": "256"}, {"size": "512"}]}}}, "dtype": {"type": "DT_FLOAT"}}}, {"name": "StatefulPartitionedCall/generator_G_1/downsample_block_3_1/batch_normalization_3_1/batchnorm/sub", "op": "Const", "attr": {"value": {"tensor": {"dtype": "DT_FLOAT", "tensorShape": {"dim": [{"size": "512"}]}}}, "dtype": {"type": "DT_FLOAT"}}}, {"name": "StatefulPartitionedCall/generator_G_1/concatenate_1482_1/concat/axis", "op": "Const", "attr": {"value": {"tensor": {"dtype": "DT_INT32", "tensorShape": {}}}, "dtype": {"type": "DT_INT32"}}}, {"name": "StatefulPartitionedCall/generator_G_1/upsample_block_4_1/batch_normalization_12_1/batchnorm/mul", "op": "Const", "attr": {"value": {"tensor": {"dtype": "DT_FLOAT", "tensorShape": {"dim": [{"size": "256"}]}}}, "dtype": {"type": "DT_FLOAT"}}}, {"name": "StatefulPartitionedCall/generator_G_1/upsample_block_4_1/batch_normalization_12_1/batchnorm/sub", "op": "Const", "attr": {"value": {"tensor": {"dtype": "DT_FLOAT", "tensorShape": {"dim": [{"size": "256"}]}}}, "dtype": {"type": "DT_FLOAT"}}}, {"name": "StatefulPartitionedCall/generator_G_1/downsample_block_2_1/conv2d_2_1/convolution/merged_input", "op": "Const", "attr": {"value": {"tensor": {"dtype": "DT_FLOAT", "tensorShape": {"dim": [{"size": "4"}, {"size": "4"}, {"size": "128"}, {"size": "256"}]}}}, "dtype": {"type": "DT_FLOAT"}}}, {"name": "StatefulPartitionedCall/generator_G_1/downsample_block_2_1/batch_normalization_2_1/batchnorm/sub", "op": "Const", "attr": {"value": {"tensor": {"dtype": "DT_FLOAT", "tensorShape": {"dim": [{"size": "256"}]}}}, "dtype": {"type": "DT_FLOAT"}}}, {"name": "StatefulPartitionedCall/generator_G_1/concatenate_1483_1/concat/axis", "op": "Const", "attr": {"value": {"tensor": {"dtype": "DT_INT32", "tensorShape": {}}}, "dtype": {"type": "DT_INT32"}}}, {"name": "StatefulPartitionedCall/generator_G_1/upsample_block_5_1/batch_normalization_13_1/batchnorm/mul", "op": "Const", "attr": {"value": {"tensor": {"dtype": "DT_FLOAT", "tensorShape": {"dim": [{"size": "128"}]}}}, "dtype": {"type": "DT_FLOAT"}}}, {"name": "StatefulPartitionedCall/generator_G_1/upsample_block_5_1/batch_normalization_13_1/batchnorm/sub", "op": "Const", "attr": {"value": {"tensor": {"dtype": "DT_FLOAT", "tensorShape": {"dim": [{"size": "128"}]}}}, "dtype": {"type": "DT_FLOAT"}}}, {"name": "StatefulPartitionedCall/generator_G_1/downsample_block_1_2/conv2d_1_1/convolution/merged_input", "op": "Const", "attr": {"value": {"tensor": {"dtype": "DT_FLOAT", "tensorShape": {"dim": [{"size": "4"}, {"size": "4"}, {"size": "64"}, {"size": "128"}]}}}, "dtype": {"type": "DT_FLOAT"}}}, {"name": "StatefulPartitionedCall/generator_G_1/downsample_block_1_2/batch_normalization_1_1/batchnorm/sub", "op": "Const", "attr": {"value": {"tensor": {"dtype": "DT_FLOAT", "tensorShape": {"dim": [{"size": "128"}]}}}, "dtype": {"type": "DT_FLOAT"}}}, {"name": "StatefulPartitionedCall/generator_G_1/concatenate_1484_1/concat/axis", "op": "Const", "attr": {"value": {"tensor": {"dtype": "DT_INT32", "tensorShape": {}}}, "dtype": {"type": "DT_INT32"}}}, {"name": "StatefulPartitionedCall/generator_G_1/upsample_block_6_1/batch_normalization_14_1/batchnorm/mul", "op": "Const", "attr": {"value": {"tensor": {"dtype": "DT_FLOAT", "tensorShape": {"dim": [{"size": "64"}]}}}, "dtype": {"type": "DT_FLOAT"}}}, {"name": "StatefulPartitionedCall/generator_G_1/upsample_block_6_1/batch_normalization_14_1/batchnorm/sub", "op": "Const", "attr": {"value": {"tensor": {"dtype": "DT_FLOAT", "tensorShape": {"dim": [{"size": "64"}]}}}, "dtype": {"type": "DT_FLOAT"}}}, {"name": "StatefulPartitionedCall/generator_G_1/downsample_block_1/conv2d_1/convolution/ReadVariableOp", "op": "Const", "attr": {"value": {"tensor": {"dtype": "DT_FLOAT", "tensorShape": {"dim": [{"size": "4"}, {"size": "4"}, {"size": "3"}, {"size": "64"}]}}}, "dtype": {"type": "DT_FLOAT"}}}, {"name": "StatefulPartitionedCall/generator_G_1/downsample_block_1/conv2d_1/Reshape", "op": "Const", "attr": {"value": {"tensor": {"dtype": "DT_FLOAT", "tensorShape": {"dim": [{"size": "1"}, {"size": "1"}, {"size": "1"}, {"size": "64"}]}}}, "dtype": {"type": "DT_FLOAT"}}}, {"name": "StatefulPartitionedCall/generator_G_1/downsample_block_1/batch_normalization_1/batchnorm/mul", "op": "Const", "attr": {"value": {"tensor": {"dtype": "DT_FLOAT", "tensorShape": {"dim": [{"size": "64"}]}}}, "dtype": {"type": "DT_FLOAT"}}}, {"name": "StatefulPartitionedCall/generator_G_1/downsample_block_1/batch_normalization_1/batchnorm/sub", "op": "Const", "attr": {"value": {"tensor": {"dtype": "DT_FLOAT", "tensorShape": {"dim": [{"size": "64"}]}}}, "dtype": {"type": "DT_FLOAT"}}}, {"name": "StatefulPartitionedCall/generator_G_1/concatenate_1485_1/concat/axis", "op": "Const", "attr": {"value": {"tensor": {"dtype": "DT_INT32", "tensorShape": {}}}, "dtype": {"type": "DT_INT32"}}}, {"name": "StatefulPartitionedCall/generator_G_1/conv2d_transpose_7_1/Reshape", "op": "Const", "attr": {"value": {"tensor": {"dtype": "DT_FLOAT", "tensorShape": {"dim": [{"size": "1"}, {"size": "1"}, {"size": "1"}, {"size": "3"}]}}}, "dtype": {"type": "DT_FLOAT"}}}, {"name": "input_img", "op": "Placeholder", "attr": {"shape": {"shape": {"dim": [{"size": "-1"}, {"size": "256"}, {"size": "256"}, {"size": "3"}]}}, "dtype": {"type": "DT_FLOAT"}}}, {"name": "StatefulPartitionedCall/generator_G_1/downsample_block_1/conv2d_1/add", "op": "_FusedConv2D", "input": ["input_img", "StatefulPartitionedCall/generator_G_1/downsample_block_1/conv2d_1/convolution/ReadVariableOp", "StatefulPartitionedCall/generator_G_1/downsample_block_1/conv2d_1/Reshape"], "device": "/device:CPU:0", "attr": {"num_host_args": {"i": "0"}, "_input_shapes": {"list": {"shape": [{"dim": [{"size": "-24"}, {"size": "-25"}, {"size": "-26"}, {"size": "-27"}]}, {"dim": [{"size": "4"}, {"size": "4"}, {"size": "3"}, {"size": "64"}]}]}}, "filter_format": {"s": "SFdJTw=="}, "data_format": {"s": "TkhXQw=="}, "strides": {"list": {"i": ["1", "2", "2", "1"]}}, "num_args": {"i": "1"}, "fused_ops": {"list": {"s": ["Qmlhc0FkZA=="]}}, "TArgs": {"list": {"type": ["DT_FLOAT"]}}, "padding": {"s": "U0FNRQ=="}, "use_cudnn_on_gpu": {"b": true}, "leakyrelu_alpha": {"f": 0.2}, "epsilon": {"f": 0.0}, "T": {"type": "DT_FLOAT"}, "explicit_paddings": {"list": {}}, "dilations": {"list": {"i": ["1", "1", "1", "1"]}}}}, {"name": "StatefulPartitionedCall/generator_G_1/downsample_block_1/batch_normalization_1/batchnorm/mul_1", "op": "Mul", "input": ["StatefulPartitionedCall/generator_G_1/downsample_block_1/conv2d_1/add", "StatefulPartitionedCall/generator_G_1/downsample_block_1/batch_normalization_1/batchnorm/mul"], "attr": {"T": {"type": "DT_FLOAT"}}}, {"name": "StatefulPartitionedCall/generator_G_1/downsample_block_1/batch_normalization_1/batchnorm/add_1", "op": "AddV2", "input": ["StatefulPartitionedCall/generator_G_1/downsample_block_1/batch_normalization_1/batchnorm/mul_1", "StatefulPartitionedCall/generator_G_1/downsample_block_1/batch_normalization_1/batchnorm/sub"], "attr": {"T": {"type": "DT_FLOAT"}}}, {"name": "StatefulPartitionedCall/generator_G_1/downsample_block_1/leaky_re_lu_1/LeakyRelu", "op": "LeakyRelu", "input": ["StatefulPartitionedCall/generator_G_1/downsample_block_1/batch_normalization_1/batchnorm/add_1"], "attr": {"alpha": {"f": 0.2}, "T": {"type": "DT_FLOAT"}}}, {"name": "StatefulPartitionedCall/generator_G_1/downsample_block_1_2/leaky_re_lu_1_1/LeakyRelu", "op": "_FusedConv2D", "input": ["StatefulPartitionedCall/generator_G_1/downsample_block_1/leaky_re_lu_1/LeakyRelu", "StatefulPartitionedCall/generator_G_1/downsample_block_1_2/conv2d_1_1/convolution/merged_input", "StatefulPartitionedCall/generator_G_1/downsample_block_1_2/batch_normalization_1_1/batchnorm/sub"], "device": "/device:CPU:0", "attr": {"num_host_args": {"i": "0"}, "data_format": {"s": "TkhXQw=="}, "filter_format": {"s": "SFdJTw=="}, "strides": {"list": {"i": ["1", "2", "2", "1"]}}, "num_args": {"i": "1"}, "fused_ops": {"list": {"s": ["Qmlhc0FkZA==", "TGVha3lSZWx1"]}}, "TArgs": {"list": {"type": ["DT_FLOAT"]}}, "padding": {"s": "U0FNRQ=="}, "use_cudnn_on_gpu": {"b": true}, "leakyrelu_alpha": {"f": 0.2}, "epsilon": {"f": 0.0}, "T": {"type": "DT_FLOAT"}, "explicit_paddings": {"list": {}}, "dilations": {"list": {"i": ["1", "1", "1", "1"]}}}}, {"name": "StatefulPartitionedCall/generator_G_1/downsample_block_2_1/leaky_re_lu_2_1/LeakyRelu", "op": "_FusedConv2D", "input": ["StatefulPartitionedCall/generator_G_1/downsample_block_1_2/leaky_re_lu_1_1/LeakyRelu", "StatefulPartitionedCall/generator_G_1/downsample_block_2_1/conv2d_2_1/convolution/merged_input", "StatefulPartitionedCall/generator_G_1/downsample_block_2_1/batch_normalization_2_1/batchnorm/sub"], "device": "/device:CPU:0", "attr": {"num_host_args": {"i": "0"}, "data_format": {"s": "TkhXQw=="}, "filter_format": {"s": "SFdJTw=="}, "strides": {"list": {"i": ["1", "2", "2", "1"]}}, "num_args": {"i": "1"}, "fused_ops": {"list": {"s": ["Qmlhc0FkZA==", "TGVha3lSZWx1"]}}, "TArgs": {"list": {"type": ["DT_FLOAT"]}}, "padding": {"s": "U0FNRQ=="}, "use_cudnn_on_gpu": {"b": true}, "leakyrelu_alpha": {"f": 0.2}, "epsilon": {"f": 0.0}, "T": {"type": "DT_FLOAT"}, "explicit_paddings": {"list": {}}, "dilations": {"list": {"i": ["1", "1", "1", "1"]}}}}, {"name": "StatefulPartitionedCall/generator_G_1/downsample_block_3_1/leaky_re_lu_3_1/LeakyRelu", "op": "_FusedConv2D", "input": ["StatefulPartitionedCall/generator_G_1/downsample_block_2_1/leaky_re_lu_2_1/LeakyRelu", "StatefulPartitionedCall/generator_G_1/downsample_block_3_1/conv2d_3_1/convolution/merged_input", "StatefulPartitionedCall/generator_G_1/downsample_block_3_1/batch_normalization_3_1/batchnorm/sub"], "device": "/device:CPU:0", "attr": {"num_host_args": {"i": "0"}, "data_format": {"s": "TkhXQw=="}, "filter_format": {"s": "SFdJTw=="}, "strides": {"list": {"i": ["1", "2", "2", "1"]}}, "num_args": {"i": "1"}, "fused_ops": {"list": {"s": ["Qmlhc0FkZA==", "TGVha3lSZWx1"]}}, "TArgs": {"list": {"type": ["DT_FLOAT"]}}, "padding": {"s": "U0FNRQ=="}, "use_cudnn_on_gpu": {"b": true}, "leakyrelu_alpha": {"f": 0.2}, "epsilon": {"f": 0.0}, "T": {"type": "DT_FLOAT"}, "explicit_paddings": {"list": {}}, "dilations": {"list": {"i": ["1", "1", "1", "1"]}}}}, {"name": "StatefulPartitionedCall/generator_G_1/downsample_block_4_1/leaky_re_lu_4_1/LeakyRelu", "op": "_FusedConv2D", "input": ["StatefulPartitionedCall/generator_G_1/downsample_block_3_1/leaky_re_lu_3_1/LeakyRelu", "StatefulPartitionedCall/generator_G_1/downsample_block_4_1/conv2d_4_1/convolution/merged_input", "StatefulPartitionedCall/generator_G_1/downsample_block_4_1/batch_normalization_4_1/batchnorm/sub"], "device": "/device:CPU:0", "attr": {"num_host_args": {"i": "0"}, "data_format": {"s": "TkhXQw=="}, "filter_format": {"s": "SFdJTw=="}, "strides": {"list": {"i": ["1", "2", "2", "1"]}}, "num_args": {"i": "1"}, "fused_ops": {"list": {"s": ["Qmlhc0FkZA==", "TGVha3lSZWx1"]}}, "TArgs": {"list": {"type": ["DT_FLOAT"]}}, "padding": {"s": "U0FNRQ=="}, "use_cudnn_on_gpu": {"b": true}, "leakyrelu_alpha": {"f": 0.2}, "epsilon": {"f": 0.0}, "T": {"type": "DT_FLOAT"}, "explicit_paddings": {"list": {}}, "dilations": {"list": {"i": ["1", "1", "1", "1"]}}}}, {"name": "StatefulPartitionedCall/generator_G_1/downsample_block_5_1/leaky_re_lu_5_1/LeakyRelu", "op": "_FusedConv2D", "input": ["StatefulPartitionedCall/generator_G_1/downsample_block_4_1/leaky_re_lu_4_1/LeakyRelu", "StatefulPartitionedCall/generator_G_1/downsample_block_5_1/conv2d_5_1/convolution/merged_input", "StatefulPartitionedCall/generator_G_1/downsample_block_5_1/batch_normalization_5_1/batchnorm/sub"], "device": "/device:CPU:0", "attr": {"num_host_args": {"i": "0"}, "data_format": {"s": "TkhXQw=="}, "filter_format": {"s": "SFdJTw=="}, "fused_ops": {"list": {"s": ["Qmlhc0FkZA==", "TGVha3lSZWx1"]}}, "num_args": {"i": "1"}, "strides": {"list": {"i": ["1", "2", "2", "1"]}}, "TArgs": {"list": {"type": ["DT_FLOAT"]}}, "padding": {"s": "U0FNRQ=="}, "use_cudnn_on_gpu": {"b": true}, "leakyrelu_alpha": {"f": 0.2}, "epsilon": {"f": 0.0}, "T": {"type": "DT_FLOAT"}, "explicit_paddings": {"list": {}}, "dilations": {"list": {"i": ["1", "1", "1", "1"]}}}}, {"name": "StatefulPartitionedCall/generator_G_1/downsample_block_6_1/leaky_re_lu_6_1/LeakyRelu", "op": "_FusedConv2D", "input": ["StatefulPartitionedCall/generator_G_1/downsample_block_5_1/leaky_re_lu_5_1/LeakyRelu", "StatefulPartitionedCall/generator_G_1/downsample_block_6_1/conv2d_6_1/convolution/merged_input", "StatefulPartitionedCall/generator_G_1/downsample_block_6_1/batch_normalization_6_1/batchnorm/sub"], "device": "/device:CPU:0", "attr": {"num_host_args": {"i": "0"}, "data_format": {"s": "TkhXQw=="}, "filter_format": {"s": "SFdJTw=="}, "fused_ops": {"list": {"s": ["Qmlhc0FkZA==", "TGVha3lSZWx1"]}}, "num_args": {"i": "1"}, "strides": {"list": {"i": ["1", "2", "2", "1"]}}, "TArgs": {"list": {"type": ["DT_FLOAT"]}}, "padding": {"s": "U0FNRQ=="}, "use_cudnn_on_gpu": {"b": true}, "leakyrelu_alpha": {"f": 0.2}, "epsilon": {"f": 0.0}, "T": {"type": "DT_FLOAT"}, "explicit_paddings": {"list": {}}, "dilations": {"list": {"i": ["1", "1", "1", "1"]}}}}, {"name": "StatefulPartitionedCall/generator_G_1/downsample_block_7_1/leaky_re_lu_7_1/LeakyRelu", "op": "_FusedConv2D", "input": ["StatefulPartitionedCall/generator_G_1/downsample_block_6_1/leaky_re_lu_6_1/LeakyRelu", "StatefulPartitionedCall/generator_G_1/downsample_block_7_1/conv2d_7_1/convolution/merged_input", "StatefulPartitionedCall/generator_G_1/downsample_block_7_1/batch_normalization_7_1/batchnorm/sub"], "device": "/device:CPU:0", "attr": {"num_host_args": {"i": "0"}, "data_format": {"s": "TkhXQw=="}, "filter_format": {"s": "SFdJTw=="}, "strides": {"list": {"i": ["1", "2", "2", "1"]}}, "num_args": {"i": "1"}, "fused_ops": {"list": {"s": ["Qmlhc0FkZA==", "TGVha3lSZWx1"]}}, "TArgs": {"list": {"type": ["DT_FLOAT"]}}, "padding": {"s": "U0FNRQ=="}, "use_cudnn_on_gpu": {"b": true}, "leakyrelu_alpha": {"f": 0.2}, "epsilon": {"f": 0.0}, "T": {"type": "DT_FLOAT"}, "explicit_paddings": {"list": {}}, "dilations": {"list": {"i": ["1", "1", "1", "1"]}}}}, {"name": "StatefulPartitionedCall/generator_G_1/upsample_block_1/conv2d_transpose_1/Shape", "op": "Shape", "input": ["StatefulPartitionedCall/generator_G_1/downsample_block_7_1/leaky_re_lu_7_1/LeakyRelu"], "attr": {"T": {"type": "DT_FLOAT"}, "out_type": {"type": "DT_INT32"}}, "experimentalType": {"typeId": "TFT_PRODUCT", "args": [{"typeId": "TFT_SHAPE_TENSOR", "args": [{"typeId": "TFT_INT32"}]}]}}, {"name": "StatefulPartitionedCall/generator_G_1/upsample_block_1/conv2d_transpose_1/strided_slice", "op": "StridedSlice", "input": ["StatefulPartitionedCall/generator_G_1/upsample_block_1/conv2d_transpose_1/Shape", "StatefulPartitionedCall/generator_G_1/upsample_block_1/conv2d_transpose_1/strided_slice/stack", "StatefulPartitionedCall/generator_G_1/upsample_block_1/conv2d_transpose_1/strided_slice/stack_1", "StatefulPartitionedCall/generator_G_1/upsample_block_1/conv2d_transpose_1/strided_slice/stack_2"], "attr": {"shrink_axis_mask": {"i": "1"}, "Index": {"type": "DT_INT32"}, "new_axis_mask": {"i": "0"}, "begin_mask": {"i": "0"}, "T": {"type": "DT_INT32"}, "end_mask": {"i": "0"}, "ellipsis_mask": {"i": "0"}}}, {"name": "StatefulPartitionedCall/generator_G_1/upsample_block_1/conv2d_transpose_1/conv_transpose/input_sizes", "op": "Pack", "input": ["StatefulPartitionedCall/generator_G_1/upsample_block_1/conv2d_transpose_1/strided_slice", "StatefulPartitionedCall/generator_G_1/upsample_block_1/conv2d_transpose_1/conv_transpose/input_sizes/1", "StatefulPartitionedCall/generator_G_1/upsample_block_1/conv2d_transpose_1/conv_transpose/input_sizes/2", "StatefulPartitionedCall/generator_G_1/upsample_block_1/conv2d_transpose_1/conv_transpose/input_sizes/3"], "attr": {"N": {"i": "4"}, "axis": {"i": "0"}, "T": {"type": "DT_INT32"}}}, {"name": "StatefulPartitionedCall/generator_G_1/upsample_block_1/conv2d_transpose_1/conv_transpose", "op": "Conv2DBackpropInput", "input": ["StatefulPartitionedCall/generator_G_1/upsample_block_1/conv2d_transpose_1/conv_transpose/input_sizes", "StatefulPartitionedCall/generator_G_1/upsample_block_1/conv2d_transpose_1/conv_transpose/ReadVariableOp", "StatefulPartitionedCall/generator_G_1/downsample_block_7_1/leaky_re_lu_7_1/LeakyRelu"], "attr": {"padding": {"s": "U0FNRQ=="}, "data_format": {"s": "TkhXQw=="}, "use_cudnn_on_gpu": {"b": true}, "strides": {"list": {"i": ["1", "2", "2", "1"]}}, "T": {"type": "DT_FLOAT"}, "explicit_paddings": {"list": {}}, "dilations": {"list": {"i": ["1", "1", "1", "1"]}}}}, {"name": "StatefulPartitionedCall/generator_G_1/upsample_block_1/batch_normalization_8_1/batchnorm/mul_1", "op": "Mul", "input": ["StatefulPartitionedCall/generator_G_1/upsample_block_1/conv2d_transpose_1/conv_transpose", "StatefulPartitionedCall/generator_G_1/upsample_block_1/batch_normalization_8_1/batchnorm/mul"], "attr": {"T": {"type": "DT_FLOAT"}}}, {"name": "StatefulPartitionedCall/generator_G_1/upsample_block_1/re_lu_1/Relu", "op": "Relu", "input": ["StatefulPartitionedCall/generator_G_1/upsample_block_1/batch_normalization_8_1/batchnorm/mul_1"], "attr": {"T": {"type": "DT_FLOAT"}}}, {"name": "StatefulPartitionedCall/generator_G_1/concatenate_1479_1/concat", "op": "ConcatV2", "input": ["StatefulPartitionedCall/generator_G_1/upsample_block_1/re_lu_1/Relu", "StatefulPartitionedCall/generator_G_1/downsample_block_6_1/leaky_re_lu_6_1/LeakyRelu", "StatefulPartitionedCall/generator_G_1/concatenate_1479_1/concat/axis"], "attr": {"N": {"i": "2"}, "T": {"type": "DT_FLOAT"}, "Tidx": {"type": "DT_INT32"}}}, {"name": "StatefulPartitionedCall/generator_G_1/upsample_block_1_2/conv2d_transpose_1_1/Shape", "op": "Shape", "input": ["StatefulPartitionedCall/generator_G_1/concatenate_1479_1/concat"], "attr": {"T": {"type": "DT_FLOAT"}, "out_type": {"type": "DT_INT32"}}, "experimentalType": {"typeId": "TFT_PRODUCT", "args": [{"typeId": "TFT_SHAPE_TENSOR", "args": [{"typeId": "TFT_INT32"}]}]}}, {"name": "StatefulPartitionedCall/generator_G_1/upsample_block_1_2/conv2d_transpose_1_1/strided_slice", "op": "StridedSlice", "input": ["StatefulPartitionedCall/generator_G_1/upsample_block_1_2/conv2d_transpose_1_1/Shape", "StatefulPartitionedCall/generator_G_1/upsample_block_1_2/conv2d_transpose_1_1/strided_slice/stack", "StatefulPartitionedCall/generator_G_1/upsample_block_1_2/conv2d_transpose_1_1/strided_slice/stack_1", "StatefulPartitionedCall/generator_G_1/upsample_block_1_2/conv2d_transpose_1_1/strided_slice/stack_2"], "attr": {"shrink_axis_mask": {"i": "1"}, "new_axis_mask": {"i": "0"}, "Index": {"type": "DT_INT32"}, "begin_mask": {"i": "0"}, "T": {"type": "DT_INT32"}, "end_mask": {"i": "0"}, "ellipsis_mask": {"i": "0"}}}, {"name": "StatefulPartitionedCall/generator_G_1/upsample_block_1_2/conv2d_transpose_1_1/conv_transpose/input_sizes", "op": "Pack", "input": ["StatefulPartitionedCall/generator_G_1/upsample_block_1_2/conv2d_transpose_1_1/strided_slice", "StatefulPartitionedCall/generator_G_1/upsample_block_1_2/conv2d_transpose_1_1/conv_transpose/input_sizes/1", "StatefulPartitionedCall/generator_G_1/upsample_block_1_2/conv2d_transpose_1_1/conv_transpose/input_sizes/2", "StatefulPartitionedCall/generator_G_1/upsample_block_1_2/conv2d_transpose_1_1/conv_transpose/input_sizes/3"], "attr": {"N": {"i": "4"}, "axis": {"i": "0"}, "T": {"type": "DT_INT32"}}}, {"name": "StatefulPartitionedCall/generator_G_1/upsample_block_1_2/conv2d_transpose_1_1/conv_transpose", "op": "Conv2DBackpropInput", "input": ["StatefulPartitionedCall/generator_G_1/upsample_block_1_2/conv2d_transpose_1_1/conv_transpose/input_sizes", "StatefulPartitionedCall/generator_G_1/upsample_block_1_2/conv2d_transpose_1_1/conv_transpose/ReadVariableOp", "StatefulPartitionedCall/generator_G_1/concatenate_1479_1/concat"], "attr": {"padding": {"s": "U0FNRQ=="}, "data_format": {"s": "TkhXQw=="}, "strides": {"list": {"i": ["1", "2", "2", "1"]}}, "use_cudnn_on_gpu": {"b": true}, "T": {"type": "DT_FLOAT"}, "explicit_paddings": {"list": {}}, "dilations": {"list": {"i": ["1", "1", "1", "1"]}}}}, {"name": "StatefulPartitionedCall/generator_G_1/upsample_block_1_2/batch_normalization_9_1/batchnorm/mul_1", "op": "Mul", "input": ["StatefulPartitionedCall/generator_G_1/upsample_block_1_2/conv2d_transpose_1_1/conv_transpose", "StatefulPartitionedCall/generator_G_1/upsample_block_1_2/batch_normalization_9_1/batchnorm/mul"], "attr": {"T": {"type": "DT_FLOAT"}}}, {"name": "StatefulPartitionedCall/generator_G_1/upsample_block_1_2/batch_normalization_9_1/batchnorm/add_1", "op": "AddV2", "input": ["StatefulPartitionedCall/generator_G_1/upsample_block_1_2/batch_normalization_9_1/batchnorm/mul_1", "StatefulPartitionedCall/generator_G_1/upsample_block_1_2/batch_normalization_9_1/batchnorm/sub"], "attr": {"T": {"type": "DT_FLOAT"}}}, {"name": "StatefulPartitionedCall/generator_G_1/upsample_block_1_2/re_lu_1_1/Relu", "op": "Relu", "input": ["StatefulPartitionedCall/generator_G_1/upsample_block_1_2/batch_normalization_9_1/batchnorm/add_1"], "attr": {"T": {"type": "DT_FLOAT"}}}, {"name": "StatefulPartitionedCall/generator_G_1/concatenate_1480_1/concat", "op": "ConcatV2", "input": ["StatefulPartitionedCall/generator_G_1/upsample_block_1_2/re_lu_1_1/Relu", "StatefulPartitionedCall/generator_G_1/downsample_block_5_1/leaky_re_lu_5_1/LeakyRelu", "StatefulPartitionedCall/generator_G_1/concatenate_1480_1/concat/axis"], "attr": {"N": {"i": "2"}, "T": {"type": "DT_FLOAT"}, "Tidx": {"type": "DT_INT32"}}}, {"name": "StatefulPartitionedCall/generator_G_1/upsample_block_2_1/conv2d_transpose_2_1/Shape", "op": "Shape", "input": ["StatefulPartitionedCall/generator_G_1/concatenate_1480_1/concat"], "attr": {"T": {"type": "DT_FLOAT"}, "out_type": {"type": "DT_INT32"}}, "experimentalType": {"typeId": "TFT_PRODUCT", "args": [{"typeId": "TFT_SHAPE_TENSOR", "args": [{"typeId": "TFT_INT32"}]}]}}, {"name": "StatefulPartitionedCall/generator_G_1/upsample_block_2_1/conv2d_transpose_2_1/strided_slice", "op": "StridedSlice", "input": ["StatefulPartitionedCall/generator_G_1/upsample_block_2_1/conv2d_transpose_2_1/Shape", "StatefulPartitionedCall/generator_G_1/upsample_block_2_1/conv2d_transpose_2_1/strided_slice/stack", "StatefulPartitionedCall/generator_G_1/upsample_block_2_1/conv2d_transpose_2_1/strided_slice/stack_1", "StatefulPartitionedCall/generator_G_1/upsample_block_2_1/conv2d_transpose_2_1/strided_slice/stack_2"], "attr": {"shrink_axis_mask": {"i": "1"}, "new_axis_mask": {"i": "0"}, "Index": {"type": "DT_INT32"}, "begin_mask": {"i": "0"}, "T": {"type": "DT_INT32"}, "end_mask": {"i": "0"}, "ellipsis_mask": {"i": "0"}}}, {"name": "StatefulPartitionedCall/generator_G_1/upsample_block_2_1/conv2d_transpose_2_1/conv_transpose/input_sizes", "op": "Pack", "input": ["StatefulPartitionedCall/generator_G_1/upsample_block_2_1/conv2d_transpose_2_1/strided_slice", "StatefulPartitionedCall/generator_G_1/upsample_block_2_1/conv2d_transpose_2_1/conv_transpose/input_sizes/1", "StatefulPartitionedCall/generator_G_1/upsample_block_2_1/conv2d_transpose_2_1/conv_transpose/input_sizes/2", "StatefulPartitionedCall/generator_G_1/upsample_block_2_1/conv2d_transpose_2_1/conv_transpose/input_sizes/3"], "attr": {"N": {"i": "4"}, "axis": {"i": "0"}, "T": {"type": "DT_INT32"}}}, {"name": "StatefulPartitionedCall/generator_G_1/upsample_block_2_1/conv2d_transpose_2_1/conv_transpose", "op": "Conv2DBackpropInput", "input": ["StatefulPartitionedCall/generator_G_1/upsample_block_2_1/conv2d_transpose_2_1/conv_transpose/input_sizes", "StatefulPartitionedCall/generator_G_1/upsample_block_2_1/conv2d_transpose_2_1/conv_transpose/ReadVariableOp", "StatefulPartitionedCall/generator_G_1/concatenate_1480_1/concat"], "attr": {"padding": {"s": "U0FNRQ=="}, "data_format": {"s": "TkhXQw=="}, "strides": {"list": {"i": ["1", "2", "2", "1"]}}, "use_cudnn_on_gpu": {"b": true}, "T": {"type": "DT_FLOAT"}, "explicit_paddings": {"list": {}}, "dilations": {"list": {"i": ["1", "1", "1", "1"]}}}}, {"name": "StatefulPartitionedCall/generator_G_1/upsample_block_2_1/batch_normalization_10_1/batchnorm/mul_1", "op": "Mul", "input": ["StatefulPartitionedCall/generator_G_1/upsample_block_2_1/conv2d_transpose_2_1/conv_transpose", "StatefulPartitionedCall/generator_G_1/upsample_block_2_1/batch_normalization_10_1/batchnorm/mul"], "attr": {"T": {"type": "DT_FLOAT"}}}, {"name": "StatefulPartitionedCall/generator_G_1/upsample_block_2_1/batch_normalization_10_1/batchnorm/add_1", "op": "AddV2", "input": ["StatefulPartitionedCall/generator_G_1/upsample_block_2_1/batch_normalization_10_1/batchnorm/mul_1", "StatefulPartitionedCall/generator_G_1/upsample_block_2_1/batch_normalization_10_1/batchnorm/sub"], "attr": {"T": {"type": "DT_FLOAT"}}}, {"name": "StatefulPartitionedCall/generator_G_1/upsample_block_2_1/re_lu_2_1/Relu", "op": "Relu", "input": ["StatefulPartitionedCall/generator_G_1/upsample_block_2_1/batch_normalization_10_1/batchnorm/add_1"], "attr": {"T": {"type": "DT_FLOAT"}}}, {"name": "StatefulPartitionedCall/generator_G_1/concatenate_1481_1/concat", "op": "ConcatV2", "input": ["StatefulPartitionedCall/generator_G_1/upsample_block_2_1/re_lu_2_1/Relu", "StatefulPartitionedCall/generator_G_1/downsample_block_4_1/leaky_re_lu_4_1/LeakyRelu", "StatefulPartitionedCall/generator_G_1/concatenate_1481_1/concat/axis"], "attr": {"N": {"i": "2"}, "Tidx": {"type": "DT_INT32"}, "T": {"type": "DT_FLOAT"}}}, {"name": "StatefulPartitionedCall/generator_G_1/upsample_block_3_1/conv2d_transpose_3_1/Shape", "op": "Shape", "input": ["StatefulPartitionedCall/generator_G_1/concatenate_1481_1/concat"], "attr": {"T": {"type": "DT_FLOAT"}, "out_type": {"type": "DT_INT32"}}, "experimentalType": {"typeId": "TFT_PRODUCT", "args": [{"typeId": "TFT_SHAPE_TENSOR", "args": [{"typeId": "TFT_INT32"}]}]}}, {"name": "StatefulPartitionedCall/generator_G_1/upsample_block_3_1/conv2d_transpose_3_1/strided_slice", "op": "StridedSlice", "input": ["StatefulPartitionedCall/generator_G_1/upsample_block_3_1/conv2d_transpose_3_1/Shape", "StatefulPartitionedCall/generator_G_1/upsample_block_3_1/conv2d_transpose_3_1/strided_slice/stack", "StatefulPartitionedCall/generator_G_1/upsample_block_3_1/conv2d_transpose_3_1/strided_slice/stack_1", "StatefulPartitionedCall/generator_G_1/upsample_block_3_1/conv2d_transpose_3_1/strided_slice/stack_2"], "attr": {"shrink_axis_mask": {"i": "1"}, "Index": {"type": "DT_INT32"}, "new_axis_mask": {"i": "0"}, "begin_mask": {"i": "0"}, "end_mask": {"i": "0"}, "T": {"type": "DT_INT32"}, "ellipsis_mask": {"i": "0"}}}, {"name": "StatefulPartitionedCall/generator_G_1/upsample_block_3_1/conv2d_transpose_3_1/conv_transpose/input_sizes", "op": "Pack", "input": ["StatefulPartitionedCall/generator_G_1/upsample_block_3_1/conv2d_transpose_3_1/strided_slice", "StatefulPartitionedCall/generator_G_1/upsample_block_3_1/conv2d_transpose_3_1/conv_transpose/input_sizes/1", "StatefulPartitionedCall/generator_G_1/upsample_block_3_1/conv2d_transpose_3_1/conv_transpose/input_sizes/2", "StatefulPartitionedCall/generator_G_1/upsample_block_3_1/conv2d_transpose_3_1/conv_transpose/input_sizes/3"], "attr": {"N": {"i": "4"}, "axis": {"i": "0"}, "T": {"type": "DT_INT32"}}}, {"name": "StatefulPartitionedCall/generator_G_1/upsample_block_3_1/conv2d_transpose_3_1/conv_transpose", "op": "Conv2DBackpropInput", "input": ["StatefulPartitionedCall/generator_G_1/upsample_block_3_1/conv2d_transpose_3_1/conv_transpose/input_sizes", "StatefulPartitionedCall/generator_G_1/upsample_block_3_1/conv2d_transpose_3_1/conv_transpose/ReadVariableOp", "StatefulPartitionedCall/generator_G_1/concatenate_1481_1/concat"], "attr": {"padding": {"s": "U0FNRQ=="}, "data_format": {"s": "TkhXQw=="}, "strides": {"list": {"i": ["1", "2", "2", "1"]}}, "use_cudnn_on_gpu": {"b": true}, "T": {"type": "DT_FLOAT"}, "explicit_paddings": {"list": {}}, "dilations": {"list": {"i": ["1", "1", "1", "1"]}}}}, {"name": "StatefulPartitionedCall/generator_G_1/upsample_block_3_1/batch_normalization_11_1/batchnorm/mul_1", "op": "Mul", "input": ["StatefulPartitionedCall/generator_G_1/upsample_block_3_1/conv2d_transpose_3_1/conv_transpose", "StatefulPartitionedCall/generator_G_1/upsample_block_3_1/batch_normalization_11_1/batchnorm/mul"], "attr": {"T": {"type": "DT_FLOAT"}}}, {"name": "StatefulPartitionedCall/generator_G_1/upsample_block_3_1/batch_normalization_11_1/batchnorm/add_1", "op": "AddV2", "input": ["StatefulPartitionedCall/generator_G_1/upsample_block_3_1/batch_normalization_11_1/batchnorm/mul_1", "StatefulPartitionedCall/generator_G_1/upsample_block_3_1/batch_normalization_11_1/batchnorm/sub"], "attr": {"T": {"type": "DT_FLOAT"}}}, {"name": "StatefulPartitionedCall/generator_G_1/upsample_block_3_1/re_lu_3_1/Relu", "op": "Relu", "input": ["StatefulPartitionedCall/generator_G_1/upsample_block_3_1/batch_normalization_11_1/batchnorm/add_1"], "attr": {"T": {"type": "DT_FLOAT"}}}, {"name": "StatefulPartitionedCall/generator_G_1/concatenate_1482_1/concat", "op": "ConcatV2", "input": ["StatefulPartitionedCall/generator_G_1/upsample_block_3_1/re_lu_3_1/Relu", "StatefulPartitionedCall/generator_G_1/downsample_block_3_1/leaky_re_lu_3_1/LeakyRelu", "StatefulPartitionedCall/generator_G_1/concatenate_1482_1/concat/axis"], "attr": {"N": {"i": "2"}, "T": {"type": "DT_FLOAT"}, "Tidx": {"type": "DT_INT32"}}}, {"name": "StatefulPartitionedCall/generator_G_1/upsample_block_4_1/conv2d_transpose_4_1/Shape", "op": "Shape", "input": ["StatefulPartitionedCall/generator_G_1/concatenate_1482_1/concat"], "attr": {"T": {"type": "DT_FLOAT"}, "out_type": {"type": "DT_INT32"}}, "experimentalType": {"typeId": "TFT_PRODUCT", "args": [{"typeId": "TFT_SHAPE_TENSOR", "args": [{"typeId": "TFT_INT32"}]}]}}, {"name": "StatefulPartitionedCall/generator_G_1/upsample_block_4_1/conv2d_transpose_4_1/strided_slice", "op": "StridedSlice", "input": ["StatefulPartitionedCall/generator_G_1/upsample_block_4_1/conv2d_transpose_4_1/Shape", "StatefulPartitionedCall/generator_G_1/upsample_block_4_1/conv2d_transpose_4_1/strided_slice/stack", "StatefulPartitionedCall/generator_G_1/upsample_block_4_1/conv2d_transpose_4_1/strided_slice/stack_1", "StatefulPartitionedCall/generator_G_1/upsample_block_4_1/conv2d_transpose_4_1/strided_slice/stack_2"], "attr": {"shrink_axis_mask": {"i": "1"}, "new_axis_mask": {"i": "0"}, "Index": {"type": "DT_INT32"}, "begin_mask": {"i": "0"}, "end_mask": {"i": "0"}, "T": {"type": "DT_INT32"}, "ellipsis_mask": {"i": "0"}}}, {"name": "StatefulPartitionedCall/generator_G_1/upsample_block_4_1/conv2d_transpose_4_1/conv_transpose/input_sizes", "op": "Pack", "input": ["StatefulPartitionedCall/generator_G_1/upsample_block_4_1/conv2d_transpose_4_1/strided_slice", "StatefulPartitionedCall/generator_G_1/upsample_block_4_1/conv2d_transpose_4_1/conv_transpose/input_sizes/1", "StatefulPartitionedCall/generator_G_1/upsample_block_4_1/conv2d_transpose_4_1/conv_transpose/input_sizes/2", "StatefulPartitionedCall/generator_G_1/upsample_block_4_1/conv2d_transpose_4_1/conv_transpose/input_sizes/3"], "attr": {"N": {"i": "4"}, "axis": {"i": "0"}, "T": {"type": "DT_INT32"}}}, {"name": "StatefulPartitionedCall/generator_G_1/upsample_block_4_1/conv2d_transpose_4_1/conv_transpose", "op": "Conv2DBackpropInput", "input": ["StatefulPartitionedCall/generator_G_1/upsample_block_4_1/conv2d_transpose_4_1/conv_transpose/input_sizes", "StatefulPartitionedCall/generator_G_1/upsample_block_4_1/conv2d_transpose_4_1/conv_transpose/ReadVariableOp", "StatefulPartitionedCall/generator_G_1/concatenate_1482_1/concat"], "attr": {"padding": {"s": "U0FNRQ=="}, "data_format": {"s": "TkhXQw=="}, "use_cudnn_on_gpu": {"b": true}, "strides": {"list": {"i": ["1", "2", "2", "1"]}}, "T": {"type": "DT_FLOAT"}, "explicit_paddings": {"list": {}}, "dilations": {"list": {"i": ["1", "1", "1", "1"]}}}}, {"name": "StatefulPartitionedCall/generator_G_1/upsample_block_4_1/batch_normalization_12_1/batchnorm/mul_1", "op": "Mul", "input": ["StatefulPartitionedCall/generator_G_1/upsample_block_4_1/conv2d_transpose_4_1/conv_transpose", "StatefulPartitionedCall/generator_G_1/upsample_block_4_1/batch_normalization_12_1/batchnorm/mul"], "attr": {"T": {"type": "DT_FLOAT"}}}, {"name": "StatefulPartitionedCall/generator_G_1/upsample_block_4_1/batch_normalization_12_1/batchnorm/add_1", "op": "AddV2", "input": ["StatefulPartitionedCall/generator_G_1/upsample_block_4_1/batch_normalization_12_1/batchnorm/mul_1", "StatefulPartitionedCall/generator_G_1/upsample_block_4_1/batch_normalization_12_1/batchnorm/sub"], "attr": {"T": {"type": "DT_FLOAT"}}}, {"name": "StatefulPartitionedCall/generator_G_1/upsample_block_4_1/re_lu_4_1/Relu", "op": "Relu", "input": ["StatefulPartitionedCall/generator_G_1/upsample_block_4_1/batch_normalization_12_1/batchnorm/add_1"], "attr": {"T": {"type": "DT_FLOAT"}}}, {"name": "StatefulPartitionedCall/generator_G_1/concatenate_1483_1/concat", "op": "ConcatV2", "input": ["StatefulPartitionedCall/generator_G_1/upsample_block_4_1/re_lu_4_1/Relu", "StatefulPartitionedCall/generator_G_1/downsample_block_2_1/leaky_re_lu_2_1/LeakyRelu", "StatefulPartitionedCall/generator_G_1/concatenate_1483_1/concat/axis"], "attr": {"N": {"i": "2"}, "Tidx": {"type": "DT_INT32"}, "T": {"type": "DT_FLOAT"}}}, {"name": "StatefulPartitionedCall/generator_G_1/upsample_block_5_1/conv2d_transpose_5_1/Shape", "op": "Shape", "input": ["StatefulPartitionedCall/generator_G_1/concatenate_1483_1/concat"], "attr": {"T": {"type": "DT_FLOAT"}, "out_type": {"type": "DT_INT32"}}, "experimentalType": {"typeId": "TFT_PRODUCT", "args": [{"typeId": "TFT_SHAPE_TENSOR", "args": [{"typeId": "TFT_INT32"}]}]}}, {"name": "StatefulPartitionedCall/generator_G_1/upsample_block_5_1/conv2d_transpose_5_1/strided_slice", "op": "StridedSlice", "input": ["StatefulPartitionedCall/generator_G_1/upsample_block_5_1/conv2d_transpose_5_1/Shape", "StatefulPartitionedCall/generator_G_1/upsample_block_5_1/conv2d_transpose_5_1/strided_slice/stack", "StatefulPartitionedCall/generator_G_1/upsample_block_5_1/conv2d_transpose_5_1/strided_slice/stack_1", "StatefulPartitionedCall/generator_G_1/upsample_block_5_1/conv2d_transpose_5_1/strided_slice/stack_2"], "attr": {"shrink_axis_mask": {"i": "1"}, "Index": {"type": "DT_INT32"}, "new_axis_mask": {"i": "0"}, "begin_mask": {"i": "0"}, "end_mask": {"i": "0"}, "T": {"type": "DT_INT32"}, "ellipsis_mask": {"i": "0"}}}, {"name": "StatefulPartitionedCall/generator_G_1/upsample_block_5_1/conv2d_transpose_5_1/conv_transpose/input_sizes", "op": "Pack", "input": ["StatefulPartitionedCall/generator_G_1/upsample_block_5_1/conv2d_transpose_5_1/strided_slice", "StatefulPartitionedCall/generator_G_1/upsample_block_5_1/conv2d_transpose_5_1/conv_transpose/input_sizes/1", "StatefulPartitionedCall/generator_G_1/upsample_block_5_1/conv2d_transpose_5_1/conv_transpose/input_sizes/2", "StatefulPartitionedCall/generator_G_1/upsample_block_5_1/conv2d_transpose_5_1/conv_transpose/input_sizes/3"], "attr": {"N": {"i": "4"}, "axis": {"i": "0"}, "T": {"type": "DT_INT32"}}}, {"name": "StatefulPartitionedCall/generator_G_1/upsample_block_5_1/conv2d_transpose_5_1/conv_transpose", "op": "Conv2DBackpropInput", "input": ["StatefulPartitionedCall/generator_G_1/upsample_block_5_1/conv2d_transpose_5_1/conv_transpose/input_sizes", "StatefulPartitionedCall/generator_G_1/upsample_block_5_1/conv2d_transpose_5_1/conv_transpose/ReadVariableOp", "StatefulPartitionedCall/generator_G_1/concatenate_1483_1/concat"], "attr": {"padding": {"s": "U0FNRQ=="}, "data_format": {"s": "TkhXQw=="}, "strides": {"list": {"i": ["1", "2", "2", "1"]}}, "use_cudnn_on_gpu": {"b": true}, "T": {"type": "DT_FLOAT"}, "explicit_paddings": {"list": {}}, "dilations": {"list": {"i": ["1", "1", "1", "1"]}}}}, {"name": "StatefulPartitionedCall/generator_G_1/upsample_block_5_1/batch_normalization_13_1/batchnorm/mul_1", "op": "Mul", "input": ["StatefulPartitionedCall/generator_G_1/upsample_block_5_1/conv2d_transpose_5_1/conv_transpose", "StatefulPartitionedCall/generator_G_1/upsample_block_5_1/batch_normalization_13_1/batchnorm/mul"], "attr": {"T": {"type": "DT_FLOAT"}}}, {"name": "StatefulPartitionedCall/generator_G_1/upsample_block_5_1/batch_normalization_13_1/batchnorm/add_1", "op": "AddV2", "input": ["StatefulPartitionedCall/generator_G_1/upsample_block_5_1/batch_normalization_13_1/batchnorm/mul_1", "StatefulPartitionedCall/generator_G_1/upsample_block_5_1/batch_normalization_13_1/batchnorm/sub"], "attr": {"T": {"type": "DT_FLOAT"}}}, {"name": "StatefulPartitionedCall/generator_G_1/upsample_block_5_1/re_lu_5_1/Relu", "op": "Relu", "input": ["StatefulPartitionedCall/generator_G_1/upsample_block_5_1/batch_normalization_13_1/batchnorm/add_1"], "attr": {"T": {"type": "DT_FLOAT"}}}, {"name": "StatefulPartitionedCall/generator_G_1/concatenate_1484_1/concat", "op": "ConcatV2", "input": ["StatefulPartitionedCall/generator_G_1/upsample_block_5_1/re_lu_5_1/Relu", "StatefulPartitionedCall/generator_G_1/downsample_block_1_2/leaky_re_lu_1_1/LeakyRelu", "StatefulPartitionedCall/generator_G_1/concatenate_1484_1/concat/axis"], "attr": {"N": {"i": "2"}, "Tidx": {"type": "DT_INT32"}, "T": {"type": "DT_FLOAT"}}}, {"name": "StatefulPartitionedCall/generator_G_1/upsample_block_6_1/conv2d_transpose_6_1/Shape", "op": "Shape", "input": ["StatefulPartitionedCall/generator_G_1/concatenate_1484_1/concat"], "attr": {"T": {"type": "DT_FLOAT"}, "out_type": {"type": "DT_INT32"}}, "experimentalType": {"typeId": "TFT_PRODUCT", "args": [{"typeId": "TFT_SHAPE_TENSOR", "args": [{"typeId": "TFT_INT32"}]}]}}, {"name": "StatefulPartitionedCall/generator_G_1/upsample_block_6_1/conv2d_transpose_6_1/strided_slice", "op": "StridedSlice", "input": ["StatefulPartitionedCall/generator_G_1/upsample_block_6_1/conv2d_transpose_6_1/Shape", "StatefulPartitionedCall/generator_G_1/upsample_block_6_1/conv2d_transpose_6_1/strided_slice/stack", "StatefulPartitionedCall/generator_G_1/upsample_block_6_1/conv2d_transpose_6_1/strided_slice/stack_1", "StatefulPartitionedCall/generator_G_1/upsample_block_6_1/conv2d_transpose_6_1/strided_slice/stack_2"], "attr": {"shrink_axis_mask": {"i": "1"}, "Index": {"type": "DT_INT32"}, "new_axis_mask": {"i": "0"}, "begin_mask": {"i": "0"}, "T": {"type": "DT_INT32"}, "end_mask": {"i": "0"}, "ellipsis_mask": {"i": "0"}}}, {"name": "StatefulPartitionedCall/generator_G_1/upsample_block_6_1/conv2d_transpose_6_1/conv_transpose/input_sizes", "op": "Pack", "input": ["StatefulPartitionedCall/generator_G_1/upsample_block_6_1/conv2d_transpose_6_1/strided_slice", "StatefulPartitionedCall/generator_G_1/upsample_block_6_1/conv2d_transpose_6_1/conv_transpose/input_sizes/1", "StatefulPartitionedCall/generator_G_1/upsample_block_6_1/conv2d_transpose_6_1/conv_transpose/input_sizes/2", "StatefulPartitionedCall/generator_G_1/upsample_block_6_1/conv2d_transpose_6_1/conv_transpose/input_sizes/3"], "attr": {"N": {"i": "4"}, "axis": {"i": "0"}, "T": {"type": "DT_INT32"}}}, {"name": "StatefulPartitionedCall/generator_G_1/upsample_block_6_1/conv2d_transpose_6_1/conv_transpose", "op": "Conv2DBackpropInput", "input": ["StatefulPartitionedCall/generator_G_1/upsample_block_6_1/conv2d_transpose_6_1/conv_transpose/input_sizes", "StatefulPartitionedCall/generator_G_1/upsample_block_6_1/conv2d_transpose_6_1/conv_transpose/ReadVariableOp", "StatefulPartitionedCall/generator_G_1/concatenate_1484_1/concat"], "attr": {"padding": {"s": "U0FNRQ=="}, "data_format": {"s": "TkhXQw=="}, "use_cudnn_on_gpu": {"b": true}, "strides": {"list": {"i": ["1", "2", "2", "1"]}}, "T": {"type": "DT_FLOAT"}, "explicit_paddings": {"list": {}}, "dilations": {"list": {"i": ["1", "1", "1", "1"]}}}}, {"name": "StatefulPartitionedCall/generator_G_1/upsample_block_6_1/batch_normalization_14_1/batchnorm/mul_1", "op": "Mul", "input": ["StatefulPartitionedCall/generator_G_1/upsample_block_6_1/conv2d_transpose_6_1/conv_transpose", "StatefulPartitionedCall/generator_G_1/upsample_block_6_1/batch_normalization_14_1/batchnorm/mul"], "attr": {"T": {"type": "DT_FLOAT"}}}, {"name": "StatefulPartitionedCall/generator_G_1/upsample_block_6_1/batch_normalization_14_1/batchnorm/add_1", "op": "AddV2", "input": ["StatefulPartitionedCall/generator_G_1/upsample_block_6_1/batch_normalization_14_1/batchnorm/mul_1", "StatefulPartitionedCall/generator_G_1/upsample_block_6_1/batch_normalization_14_1/batchnorm/sub"], "attr": {"T": {"type": "DT_FLOAT"}}}, {"name": "StatefulPartitionedCall/generator_G_1/upsample_block_6_1/re_lu_6_1/Relu", "op": "Relu", "input": ["StatefulPartitionedCall/generator_G_1/upsample_block_6_1/batch_normalization_14_1/batchnorm/add_1"], "attr": {"T": {"type": "DT_FLOAT"}}}, {"name": "StatefulPartitionedCall/generator_G_1/concatenate_1485_1/concat", "op": "ConcatV2", "input": ["StatefulPartitionedCall/generator_G_1/upsample_block_6_1/re_lu_6_1/Relu", "StatefulPartitionedCall/generator_G_1/downsample_block_1/leaky_re_lu_1/LeakyRelu", "StatefulPartitionedCall/generator_G_1/concatenate_1485_1/concat/axis"], "attr": {"N": {"i": "2"}, "T": {"type": "DT_FLOAT"}, "Tidx": {"type": "DT_INT32"}}}, {"name": "StatefulPartitionedCall/generator_G_1/conv2d_transpose_7_1/Shape", "op": "Shape", "input": ["StatefulPartitionedCall/generator_G_1/concatenate_1485_1/concat"], "attr": {"T": {"type": "DT_FLOAT"}, "out_type": {"type": "DT_INT32"}}, "experimentalType": {"typeId": "TFT_PRODUCT", "args": [{"typeId": "TFT_SHAPE_TENSOR", "args": [{"typeId": "TFT_INT32"}]}]}}, {"name": "StatefulPartitionedCall/generator_G_1/conv2d_transpose_7_1/strided_slice", "op": "StridedSlice", "input": ["StatefulPartitionedCall/generator_G_1/conv2d_transpose_7_1/Shape", "StatefulPartitionedCall/generator_G_1/conv2d_transpose_7_1/strided_slice/stack", "StatefulPartitionedCall/generator_G_1/conv2d_transpose_7_1/strided_slice/stack_1", "StatefulPartitionedCall/generator_G_1/conv2d_transpose_7_1/strided_slice/stack_2"], "attr": {"shrink_axis_mask": {"i": "1"}, "Index": {"type": "DT_INT32"}, "new_axis_mask": {"i": "0"}, "begin_mask": {"i": "0"}, "end_mask": {"i": "0"}, "T": {"type": "DT_INT32"}, "ellipsis_mask": {"i": "0"}}}, {"name": "StatefulPartitionedCall/generator_G_1/conv2d_transpose_7_1/conv_transpose/input_sizes", "op": "Pack", "input": ["StatefulPartitionedCall/generator_G_1/conv2d_transpose_7_1/strided_slice", "StatefulPartitionedCall/generator_G_1/conv2d_transpose_7_1/conv_transpose/input_sizes/1", "StatefulPartitionedCall/generator_G_1/conv2d_transpose_7_1/conv_transpose/input_sizes/2", "StatefulPartitionedCall/generator_G_1/conv2d_transpose_7_1/conv_transpose/input_sizes/3"], "attr": {"N": {"i": "4"}, "axis": {"i": "0"}, "T": {"type": "DT_INT32"}}}, {"name": "StatefulPartitionedCall/generator_G_1/conv2d_transpose_7_1/conv_transpose", "op": "Conv2DBackpropInput", "input": ["StatefulPartitionedCall/generator_G_1/conv2d_transpose_7_1/conv_transpose/input_sizes", "StatefulPartitionedCall/generator_G_1/conv2d_transpose_7_1/conv_transpose/ReadVariableOp", "StatefulPartitionedCall/generator_G_1/concatenate_1485_1/concat"], "attr": {"padding": {"s": "U0FNRQ=="}, "data_format": {"s": "TkhXQw=="}, "use_cudnn_on_gpu": {"b": true}, "strides": {"list": {"i": ["1", "2", "2", "1"]}}, "T": {"type": "DT_FLOAT"}, "explicit_paddings": {"list": {}}, "dilations": {"list": {"i": ["1", "1", "1", "1"]}}}}, {"name": "StatefulPartitionedCall/generator_G_1/conv2d_transpose_7_1/add", "op": "AddV2", "input": ["StatefulPartitionedCall/generator_G_1/conv2d_transpose_7_1/conv_transpose", "StatefulPartitionedCall/generator_G_1/conv2d_transpose_7_1/Reshape"], "attr": {"T": {"type": "DT_FLOAT"}}}, {"name": "StatefulPartitionedCall/generator_G_1/conv2d_transpose_7_1/Tanh", "op": "Tanh", "input": ["StatefulPartitionedCall/generator_G_1/conv2d_transpose_7_1/add"], "attr": {"T": {"type": "DT_FLOAT"}}}, {"name": "Identity", "op": "Identity", "input": ["StatefulPartitionedCall/generator_G_1/conv2d_transpose_7_1/Tanh"], "attr": {"T": {"type": "DT_FLOAT"}}}], "library": {}, "versions": {"producer": 1994}}, "weightsManifest": [{"paths": ["group1-shard1of52.bin", "group1-shard2of52.bin", "group1-shard3of52.bin", "group1-shard4of52.bin", "group1-shard5of52.bin", "group1-shard6of52.bin", "group1-shard7of52.bin", "group1-shard8of52.bin", "group1-shard9of52.bin", "group1-shard10of52.bin", "group1-shard11of52.bin", "group1-shard12of52.bin", "group1-shard13of52.bin", "group1-shard14of52.bin", "group1-shard15of52.bin", "group1-shard16of52.bin", "group1-shard17of52.bin", "group1-shard18of52.bin", "group1-shard19of52.bin", "group1-shard20of52.bin", "group1-shard21of52.bin", "group1-shard22of52.bin", "group1-shard23of52.bin", "group1-shard24of52.bin", "group1-shard25of52.bin", "group1-shard26of52.bin", "group1-shard27of52.bin", "group1-shard28of52.bin", "group1-shard29of52.bin", "group1-shard30of52.bin", "group1-shard31of52.bin", "group1-shard32of52.bin", "group1-shard33of52.bin", "group1-shard34of52.bin", "group1-shard35of52.bin", "group1-shard36of52.bin", "group1-shard37of52.bin", "group1-shard38of52.bin", "group1-shard39of52.bin", "group1-shard40of52.bin", "group1-shard41of52.bin", "group1-shard42of52.bin", "group1-shard43of52.bin", "group1-shard44of52.bin", "group1-shard45of52.bin", "group1-shard46of52.bin", "group1-shard47of52.bin", "group1-shard48of52.bin", "group1-shard49of52.bin", "group1-shard50of52.bin", "group1-shard51of52.bin", "group1-shard52of52.bin"], "weights": [{"name": "StatefulPartitionedCall/generator_G_1/conv2d_transpose_7_1/strided_slice/stack", "shape": [1], "dtype": "int32"}, {"name": "StatefulPartitionedCall/generator_G_1/conv2d_transpose_7_1/strided_slice/stack_1", "shape": [1], "dtype": "int32"}, {"name": "StatefulPartitionedCall/generator_G_1/conv2d_transpose_7_1/strided_slice/stack_2", "shape": [1], "dtype": "int32"}, {"name": "StatefulPartitionedCall/generator_G_1/conv2d_transpose_7_1/conv_transpose/input_sizes/1", "shape": [], "dtype": "int32"}, {"name": "StatefulPartitionedCall/generator_G_1/conv2d_transpose_7_1/conv_transpose/input_sizes/2", "shape": [], "dtype": "int32"}, {"name": "StatefulPartitionedCall/generator_G_1/conv2d_transpose_7_1/conv_transpose/input_sizes/3", "shape": [], "dtype": "int32"}, {"name": "StatefulPartitionedCall/generator_G_1/conv2d_transpose_7_1/conv_transpose/ReadVariableOp", "shape": [4, 4, 3, 128], "dtype": "float32"}, {"name": "StatefulPartitionedCall/generator_G_1/upsample_block_6_1/conv2d_transpose_6_1/strided_slice/stack", "shape": [1], "dtype": "int32"}, {"name": "StatefulPartitionedCall/generator_G_1/upsample_block_6_1/conv2d_transpose_6_1/strided_slice/stack_1", "shape": [1], "dtype": "int32"}, {"name": "StatefulPartitionedCall/generator_G_1/upsample_block_6_1/conv2d_transpose_6_1/strided_slice/stack_2", "shape": [1], "dtype": "int32"}, {"name": "StatefulPartitionedCall/generator_G_1/upsample_block_6_1/conv2d_transpose_6_1/conv_transpose/input_sizes/1", "shape": [], "dtype": "int32"}, {"name": "StatefulPartitionedCall/generator_G_1/upsample_block_6_1/conv2d_transpose_6_1/conv_transpose/input_sizes/2", "shape": [], "dtype": "int32"}, {"name": "StatefulPartitionedCall/generator_G_1/upsample_block_6_1/conv2d_transpose_6_1/conv_transpose/input_sizes/3", "shape": [], "dtype": "int32"}, {"name": "StatefulPartitionedCall/generator_G_1/upsample_block_6_1/conv2d_transpose_6_1/conv_transpose/ReadVariableOp", "shape": [4, 4, 64, 256], "dtype": "float32"}, {"name": "StatefulPartitionedCall/generator_G_1/upsample_block_5_1/conv2d_transpose_5_1/strided_slice/stack", "shape": [1], "dtype": "int32"}, {"name": "StatefulPartitionedCall/generator_G_1/upsample_block_5_1/conv2d_transpose_5_1/strided_slice/stack_1", "shape": [1], "dtype": "int32"}, {"name": "StatefulPartitionedCall/generator_G_1/upsample_block_5_1/conv2d_transpose_5_1/strided_slice/stack_2", "shape": [1], "dtype": "int32"}, {"name": "StatefulPartitionedCall/generator_G_1/upsample_block_5_1/conv2d_transpose_5_1/conv_transpose/input_sizes/1", "shape": [], "dtype": "int32"}, {"name": "StatefulPartitionedCall/generator_G_1/upsample_block_5_1/conv2d_transpose_5_1/conv_transpose/input_sizes/2", "shape": [], "dtype": "int32"}, {"name": "StatefulPartitionedCall/generator_G_1/upsample_block_5_1/conv2d_transpose_5_1/conv_transpose/input_sizes/3", "shape": [], "dtype": "int32"}, {"name": "StatefulPartitionedCall/generator_G_1/upsample_block_5_1/conv2d_transpose_5_1/conv_transpose/ReadVariableOp", "shape": [4, 4, 128, 512], "dtype": "float32"}, {"name": "StatefulPartitionedCall/generator_G_1/upsample_block_4_1/conv2d_transpose_4_1/strided_slice/stack", "shape": [1], "dtype": "int32"}, {"name": "StatefulPartitionedCall/generator_G_1/upsample_block_4_1/conv2d_transpose_4_1/strided_slice/stack_1", "shape": [1], "dtype": "int32"}, {"name": "StatefulPartitionedCall/generator_G_1/upsample_block_4_1/conv2d_transpose_4_1/strided_slice/stack_2", "shape": [1], "dtype": "int32"}, {"name": "StatefulPartitionedCall/generator_G_1/upsample_block_4_1/conv2d_transpose_4_1/conv_transpose/input_sizes/1", "shape": [], "dtype": "int32"}, {"name": "StatefulPartitionedCall/generator_G_1/upsample_block_4_1/conv2d_transpose_4_1/conv_transpose/input_sizes/2", "shape": [], "dtype": "int32"}, {"name": "StatefulPartitionedCall/generator_G_1/upsample_block_4_1/conv2d_transpose_4_1/conv_transpose/input_sizes/3", "shape": [], "dtype": "int32"}, {"name": "StatefulPartitionedCall/generator_G_1/upsample_block_4_1/conv2d_transpose_4_1/conv_transpose/ReadVariableOp", "shape": [4, 4, 256, 1024], "dtype": "float32"}, {"name": "StatefulPartitionedCall/generator_G_1/upsample_block_3_1/conv2d_transpose_3_1/strided_slice/stack", "shape": [1], "dtype": "int32"}, {"name": "StatefulPartitionedCall/generator_G_1/upsample_block_3_1/conv2d_transpose_3_1/strided_slice/stack_1", "shape": [1], "dtype": "int32"}, {"name": "StatefulPartitionedCall/generator_G_1/upsample_block_3_1/conv2d_transpose_3_1/strided_slice/stack_2", "shape": [1], "dtype": "int32"}, {"name": "StatefulPartitionedCall/generator_G_1/upsample_block_3_1/conv2d_transpose_3_1/conv_transpose/input_sizes/1", "shape": [], "dtype": "int32"}, {"name": "StatefulPartitionedCall/generator_G_1/upsample_block_3_1/conv2d_transpose_3_1/conv_transpose/input_sizes/2", "shape": [], "dtype": "int32"}, {"name": "StatefulPartitionedCall/generator_G_1/upsample_block_3_1/conv2d_transpose_3_1/conv_transpose/input_sizes/3", "shape": [], "dtype": "int32"}, {"name": "StatefulPartitionedCall/generator_G_1/upsample_block_3_1/conv2d_transpose_3_1/conv_transpose/ReadVariableOp", "shape": [4, 4, 512, 1024], "dtype": "float32"}, {"name": "StatefulPartitionedCall/generator_G_1/upsample_block_2_1/conv2d_transpose_2_1/strided_slice/stack", "shape": [1], "dtype": "int32"}, {"name": "StatefulPartitionedCall/generator_G_1/upsample_block_2_1/conv2d_transpose_2_1/strided_slice/stack_1", "shape": [1], "dtype": "int32"}, {"name": "StatefulPartitionedCall/generator_G_1/upsample_block_2_1/conv2d_transpose_2_1/strided_slice/stack_2", "shape": [1], "dtype": "int32"}, {"name": "StatefulPartitionedCall/generator_G_1/upsample_block_2_1/conv2d_transpose_2_1/conv_transpose/input_sizes/1", "shape": [], "dtype": "int32"}, {"name": "StatefulPartitionedCall/generator_G_1/upsample_block_2_1/conv2d_transpose_2_1/conv_transpose/input_sizes/2", "shape": [], "dtype": "int32"}, {"name": "StatefulPartitionedCall/generator_G_1/upsample_block_2_1/conv2d_transpose_2_1/conv_transpose/input_sizes/3", "shape": [], "dtype": "int32"}, {"name": "StatefulPartitionedCall/generator_G_1/upsample_block_2_1/conv2d_transpose_2_1/conv_transpose/ReadVariableOp", "shape": [4, 4, 512, 1024], "dtype": "float32"}, {"name": "StatefulPartitionedCall/generator_G_1/upsample_block_1_2/conv2d_transpose_1_1/strided_slice/stack", "shape": [1], "dtype": "int32"}, {"name": "StatefulPartitionedCall/generator_G_1/upsample_block_1_2/conv2d_transpose_1_1/strided_slice/stack_1", "shape": [1], "dtype": "int32"}, {"name": "StatefulPartitionedCall/generator_G_1/upsample_block_1_2/conv2d_transpose_1_1/strided_slice/stack_2", "shape": [1], "dtype": "int32"}, {"name": "StatefulPartitionedCall/generator_G_1/upsample_block_1_2/conv2d_transpose_1_1/conv_transpose/input_sizes/1", "shape": [], "dtype": "int32"}, {"name": "StatefulPartitionedCall/generator_G_1/upsample_block_1_2/conv2d_transpose_1_1/conv_transpose/input_sizes/2", "shape": [], "dtype": "int32"}, {"name": "StatefulPartitionedCall/generator_G_1/upsample_block_1_2/conv2d_transpose_1_1/conv_transpose/input_sizes/3", "shape": [], "dtype": "int32"}, {"name": "StatefulPartitionedCall/generator_G_1/upsample_block_1_2/conv2d_transpose_1_1/conv_transpose/ReadVariableOp", "shape": [4, 4, 512, 1024], "dtype": "float32"}, {"name": "StatefulPartitionedCall/generator_G_1/upsample_block_1/conv2d_transpose_1/strided_slice/stack", "shape": [1], "dtype": "int32"}, {"name": "StatefulPartitionedCall/generator_G_1/upsample_block_1/conv2d_transpose_1/strided_slice/stack_1", "shape": [1], "dtype": "int32"}, {"name": "StatefulPartitionedCall/generator_G_1/upsample_block_1/conv2d_transpose_1/strided_slice/stack_2", "shape": [1], "dtype": "int32"}, {"name": "StatefulPartitionedCall/generator_G_1/upsample_block_1/conv2d_transpose_1/conv_transpose/input_sizes/1", "shape": [], "dtype": "int32"}, {"name": "StatefulPartitionedCall/generator_G_1/upsample_block_1/conv2d_transpose_1/conv_transpose/input_sizes/2", "shape": [], "dtype": "int32"}, {"name": "StatefulPartitionedCall/generator_G_1/upsample_block_1/conv2d_transpose_1/conv_transpose/input_sizes/3", "shape": [], "dtype": "int32"}, {"name": "StatefulPartitionedCall/generator_G_1/upsample_block_1/conv2d_transpose_1/conv_transpose/ReadVariableOp", "shape": [4, 4, 512, 512], "dtype": "float32"}, {"name": "StatefulPartitionedCall/generator_G_1/downsample_block_7_1/conv2d_7_1/convolution/merged_input", "shape": [4, 4, 512, 512], "dtype": "float32"}, {"name": "StatefulPartitionedCall/generator_G_1/downsample_block_7_1/batch_normalization_7_1/batchnorm/sub", "shape": [512], "dtype": "float32"}, {"name": "StatefulPartitionedCall/generator_G_1/upsample_block_1/batch_normalization_8_1/batchnorm/mul", "shape": [512], "dtype": "float32"}, {"name": "StatefulPartitionedCall/generator_G_1/downsample_block_6_1/conv2d_6_1/convolution/merged_input", "shape": [4, 4, 512, 512], "dtype": "float32"}, {"name": "StatefulPartitionedCall/generator_G_1/downsample_block_6_1/batch_normalization_6_1/batchnorm/sub", "shape": [512], "dtype": "float32"}, {"name": "StatefulPartitionedCall/generator_G_1/concatenate_1479_1/concat/axis", "shape": [], "dtype": "int32"}, {"name": "StatefulPartitionedCall/generator_G_1/upsample_block_1_2/batch_normalization_9_1/batchnorm/mul", "shape": [512], "dtype": "float32"}, {"name": "StatefulPartitionedCall/generator_G_1/upsample_block_1_2/batch_normalization_9_1/batchnorm/sub", "shape": [512], "dtype": "float32"}, {"name": "StatefulPartitionedCall/generator_G_1/downsample_block_5_1/conv2d_5_1/convolution/merged_input", "shape": [4, 4, 512, 512], "dtype": "float32"}, {"name": "StatefulPartitionedCall/generator_G_1/downsample_block_5_1/batch_normalization_5_1/batchnorm/sub", "shape": [512], "dtype": "float32"}, {"name": "StatefulPartitionedCall/generator_G_1/concatenate_1480_1/concat/axis", "shape": [], "dtype": "int32"}, {"name": "StatefulPartitionedCall/generator_G_1/upsample_block_2_1/batch_normalization_10_1/batchnorm/mul", "shape": [512], "dtype": "float32"}, {"name": "StatefulPartitionedCall/generator_G_1/upsample_block_2_1/batch_normalization_10_1/batchnorm/sub", "shape": [512], "dtype": "float32"}, {"name": "StatefulPartitionedCall/generator_G_1/downsample_block_4_1/conv2d_4_1/convolution/merged_input", "shape": [4, 4, 512, 512], "dtype": "float32"}, {"name": "StatefulPartitionedCall/generator_G_1/downsample_block_4_1/batch_normalization_4_1/batchnorm/sub", "shape": [512], "dtype": "float32"}, {"name": "StatefulPartitionedCall/generator_G_1/concatenate_1481_1/concat/axis", "shape": [], "dtype": "int32"}, {"name": "StatefulPartitionedCall/generator_G_1/upsample_block_3_1/batch_normalization_11_1/batchnorm/mul", "shape": [512], "dtype": "float32"}, {"name": "StatefulPartitionedCall/generator_G_1/upsample_block_3_1/batch_normalization_11_1/batchnorm/sub", "shape": [512], "dtype": "float32"}, {"name": "StatefulPartitionedCall/generator_G_1/downsample_block_3_1/conv2d_3_1/convolution/merged_input", "shape": [4, 4, 256, 512], "dtype": "float32"}, {"name": "StatefulPartitionedCall/generator_G_1/downsample_block_3_1/batch_normalization_3_1/batchnorm/sub", "shape": [512], "dtype": "float32"}, {"name": "StatefulPartitionedCall/generator_G_1/concatenate_1482_1/concat/axis", "shape": [], "dtype": "int32"}, {"name": "StatefulPartitionedCall/generator_G_1/upsample_block_4_1/batch_normalization_12_1/batchnorm/mul", "shape": [256], "dtype": "float32"}, {"name": "StatefulPartitionedCall/generator_G_1/upsample_block_4_1/batch_normalization_12_1/batchnorm/sub", "shape": [256], "dtype": "float32"}, {"name": "StatefulPartitionedCall/generator_G_1/downsample_block_2_1/conv2d_2_1/convolution/merged_input", "shape": [4, 4, 128, 256], "dtype": "float32"}, {"name": "StatefulPartitionedCall/generator_G_1/downsample_block_2_1/batch_normalization_2_1/batchnorm/sub", "shape": [256], "dtype": "float32"}, {"name": "StatefulPartitionedCall/generator_G_1/concatenate_1483_1/concat/axis", "shape": [], "dtype": "int32"}, {"name": "StatefulPartitionedCall/generator_G_1/upsample_block_5_1/batch_normalization_13_1/batchnorm/mul", "shape": [128], "dtype": "float32"}, {"name": "StatefulPartitionedCall/generator_G_1/upsample_block_5_1/batch_normalization_13_1/batchnorm/sub", "shape": [128], "dtype": "float32"}, {"name": "StatefulPartitionedCall/generator_G_1/downsample_block_1_2/conv2d_1_1/convolution/merged_input", "shape": [4, 4, 64, 128], "dtype": "float32"}, {"name": "StatefulPartitionedCall/generator_G_1/downsample_block_1_2/batch_normalization_1_1/batchnorm/sub", "shape": [128], "dtype": "float32"}, {"name": "StatefulPartitionedCall/generator_G_1/concatenate_1484_1/concat/axis", "shape": [], "dtype": "int32"}, {"name": "StatefulPartitionedCall/generator_G_1/upsample_block_6_1/batch_normalization_14_1/batchnorm/mul", "shape": [64], "dtype": "float32"}, {"name": "StatefulPartitionedCall/generator_G_1/upsample_block_6_1/batch_normalization_14_1/batchnorm/sub", "shape": [64], "dtype": "float32"}, {"name": "StatefulPartitionedCall/generator_G_1/downsample_block_1/conv2d_1/convolution/ReadVariableOp", "shape": [4, 4, 3, 64], "dtype": "float32"}, {"name": "StatefulPartitionedCall/generator_G_1/downsample_block_1/conv2d_1/Reshape", "shape": [1, 1, 1, 64], "dtype": "float32"}, {"name": "StatefulPartitionedCall/generator_G_1/downsample_block_1/batch_normalization_1/batchnorm/mul", "shape": [64], "dtype": "float32"}, {"name": "StatefulPartitionedCall/generator_G_1/downsample_block_1/batch_normalization_1/batchnorm/sub", "shape": [64], "dtype": "float32"}, {"name": "StatefulPartitionedCall/generator_G_1/concatenate_1485_1/concat/axis", "shape": [], "dtype": "int32"}, {"name": "StatefulPartitionedCall/generator_G_1/conv2d_transpose_7_1/Reshape", "shape": [1, 1, 1, 3], "dtype": "float32"}]}]}